agent_dqn.pth (torch, 22119 bytes, 6 tensors)

fc1.weight f4 [64, 8]
00000000: fcdc 7ebf 072a 94bf 0a98 46bf 35f0 26bf
00000010: 7ca3 0d3f fd93 a63d 9c03 783e 3ee1 1d3f
00000020: ba3e 5b3f 22f7 94be 018d 0b3f 1493 08bf
00000030: 42d8 56bf 4a74 a8be 8774 80be 37de 91be
00000040: f648 66be d821 7b3d fb7d 883e 24e6 db3d
00000050: e55a fabd 88eb ca3e 6362 71bf 352e 12bf
00000060: 4ec1 ab3e 36c8 bfbe 22fd 823d e0e4 e4be
00000070: 5101 183e a5f3 963e 9de4 8abe 8096 f73e
00000080: 9f5b 853f 2ba6 d5be 4162 fa3e a34d dcbe
00000090: cdf7 a4be 04ad ffbb 8d14 a03e dbd7 08bf
000000a0: 7a3c 2abe e661 b1bf f372 99bf ea31 84bf
000000b0: 7715 123f 1369 6b3c c225 a43e 1630 68bd
000000c0: 5954 e8be 3dfd cb3e 8902 4dbf f0c3 183f
000000d0: 438e 3dbf b682 acbf fec7 a2bd 9945 f83d
000000e0: 1643 c6be 6544 a13f 2648 e9be ea42 70be
000000f0: 515b 3f3c 8b88 cd3d 4f2d 803e 8744 80be
00000100: 6fd4 eabc b454 af3e 01db 9dbe 9d54 603e
00000110: 7f01 f2be 95bc c5be 94d8 ebbd f248 313f
00000120: a38e 423f f0f4 6ebf 196e 433f bc34 05bf
00000130: f5ec c83f 568e f53d 4ead 36be 8698 043f
00000140: 9c2b 843e 3a4d 04c0 1072 cf3e c1d2 b8be
00000150: 2f5f baba 0a81 833d 780a a33d ae5e 313e
00000160: c68c efbe ebde 623f e337 febe e84d bcbd
00000170: 3e4e 603d 4fed 323e 9798 8f3e ca5d 803d
00000180: da9f 2fbe 256d 69bf d529 d03b 3a24 73bf
00000190: fd0f debe 0f6b fa3d dfaa f73e 0cea 533e
000001a0: 25ee 1bbe 3def a4bf 04b0 9dbe 3996 43bf
000001b0: 63fa 2c3f 0071 cebd 8c48 aebe 2206 ec3d
000001c0: 7c80 c43e 1f69 57bb e4ff dcbe b0e9 85be
000001d0: 3462 69be 20ec 2ebf 7abd 7dbf 4722 bdbb
000001e0: 2aa7 0ebe c37d 97bd 4709 9ebe da41 8cbf
000001f0: b1ee 6b3e f483 ecbb 242e 483d 03bb 013e
00000200: 4106 91be ef06 063d 6559 0a3f e2c8 3ebe
00000210: d135 95bf b2e2 19be 940b 653e f6f3 a93e
00000220: 704f 173e 8ea3 da3d d60c 99bc 62f9 fbbe
00000230: 4194 afbe 1380 19be 34e2 8d3e 6d8c 563d
00000240: b7f3 a4bc 353f 7fbe 640a 75be 2265 b83a
00000250: 3b4f 0a3e 0a35 533e e5f1 0f3f 3f8b f53e
00000260: 56ad 24bf 9984 173e a80b 69bf aad4 1e3e
00000270: f249 373f 1bf2 703d ca44 1cbf 3810 f7be
00000280: a3e1 843e 0a3a 693e bcfd a93e 0f1f 6dbe
00000290: 63eb b0be 0581 0cbf d1c4 e73d 8619 893e
000002a0: 4fdf 22bd dbfc 8dbe 6c26 783c d440 0cbe
000002b0: 958a e2be b185 a53a 49c2 073f d6a2 88bf
000002c0: b632 bd3e 83f5 b3be a3fe 2c3f d7a2 36bf
000002d0: d265 3dbf 271e 563c 69ca 5a3d 9965 a03e
000002e0: f443 bcbe 66d4 e6be 8a68 c9be f82a 53bf
000002f0: 3415 0c3f cba8 3e3e f07d 843e 627d 183f
00000300: 8085 07be de42 cebe a4ab 003f 257b 06bf
00000310: 2a12 f73e f89e d23e fde0 f13e fc8f a13d
00000320: 6632 e7bd 0ae4 043f 6ce6 00bf b12e a9bd
00000330: efd3 a33e b6b5 22bf 88cb a1bf 9e7c 88be
00000340: 6490 e43d 62b5 243d 0660 353d b1fc cdbe
00000350: ef5e 2bbf 7b60 d6be 28cd 5a3e cb51 973e
00000360: 7569 243e 511e 3d3f fef9 753e d2a0 9bbe
00000370: 4062 a93e 7125 c43e 457c e5bc 2da3 2d3e
00000380: 104a f13c 1019 0bbf 713a 653e bfa1 03bf
00000390: ea74 ee3e 52a7 a83e 72a8 643e a41e 0abf
000003a0: 8311 e4bd e174 bbbe 01fd a9bf ebf4 5c3f
000003b0: 727b f93f 9383 7fbd 4bf4 143e a331 0d3f
000003c0: 5bf5 92be 65ef fb3c ff34 77be 0b67 d63d
000003d0: 77c8 973d caff a53e f32e a3be 4b51 49be
000003e0: 692d 813d 0f01 193e 499f f5bd 78ad 85bf
000003f0: ab9e 973e 5740 21be acdb 313d d492 80be
-0.99555945 -1.1575326 -0.77575743 -0.65210277 0.5532758 0.08133695 0.24220127 0.6167182
0.8564259 -0.29094797 0.5451203 -0.53349423 -0.83923733 -0.32901222 -0.25088903 -0.2848985
-0.2248877 0.061311573 0.26658615 0.10737255 -0.12224368 0.3963282 -0.9429075 -0.57101756
0.33545917 -0.37457436 0.063959375 -0.44705868 0.14844252 0.2948276 -0.27127543 0.4835701
1.0418586 -0.4172834 0.48903087 -0.43027982 -0.32220307 -0.0078026075 0.3126568 -0.5345437
-0.16624632 -1.3858001 -1.1988205 -1.0327733 0.57064 0.014368313 0.32060057 -0.056686483
-0.45376852 0.39841643 -0.80081993 0.59673977 -0.740452 -1.347739 -0.07948302 0.1212265
-0.38723058 1.2598997 -0.45562857 -0.23463026 0.011679486 0.10035809 0.25034568 -0.25052282
-0.02866575 0.3424431 -0.3083115 0.21907277 -0.47266766 -0.3862044 -0.115159184 0.6925193
0.75998896 -0.93342495 0.7633987 -0.5203359 1.5697314 0.11990039 -0.17839548 0.5179523
0.2581452 -2.0672135 0.4051671 -0.36098292 -0.0014219041 0.064210966 0.07960981 0.17321274
-0.4678709 0.88621396 -0.49652013 -0.09194547 0.054762118 0.17473339 0.28046104 0.06267889
-0.17150822 -0.91182166 0.006352643 -0.9497715 -0.43371573 0.12227451 0.48372552 0.2069475
-0.15227564 -1.288551 -0.30798352 -0.76401097 0.6756956 -0.10080147 -0.34039724 0.11524607
0.38379276 -0.0032869054 -0.4316398 -0.26154852 -0.22791368 -0.6832905 -0.99117243 -0.0057719084
-0.13930956 -0.07397034 -0.30866453 -1.0957596 0.23040272 -0.0072178785 0.048872128 0.12668996
-0.28325084 0.032721456 0.54042655 -0.18631318 -1.1657048 -0.15027884 0.22367698 0.3319394
0.14776397 0.10675727 -0.018682878 -0.492137 -0.34292796 -0.14990263 0.27711642 0.052380014
-0.020135744 -0.24926455 -0.23929745 0.0014068226 0.13506787 0.20625702 0.56228477 0.479578
-0.6432699 0.14796676 -0.9103341 0.15510812 0.71597207 0.05882464 -0.61042464 -0.4825456
0.25953397 0.22776046 0.33201396 -0.23156379 -0.34554586 -0.5488437 0.113168366 0.26777285
-0.039763745 -0.27731976 0.015145879 -0.13696605 -0.44246355 0.0012628344 0.5303083 -1.0674694
0.36952752 -0.35148248 0.67576045 -0.71342224 -0.7398349 0.013068712 0.05341569 0.31327513
-0.36770594 -0.45083922 -0.3933757 -0.8248744 0.54719853 0.18619077 0.25877333 0.5956632
-0.1323452 -0.4028539 0.502619 -0.52531654 0.48256046 0.4113691 0.47241965 0.07888791
-0.112889096 0.5191046 -0.50351596 -0.08260859 0.3199763 -0.6355852 -1.2640238 -0.26657575
0.11160353 0.040212043 0.04428103 -0.4023185 -0.6694173 -0.41870484 0.21367323 0.2955459
0.16055854 0.73874384 0.24021146 -0.30396134 0.3308277 0.38309816 -0.028013358 0.16956778
0.029454261 -0.5433512 0.22385575 -0.5141868 0.46573573 0.32940155 0.22329882 -0.53953004
-0.111361526 -0.3661261 -1.3280336 0.86311215 1.9490798 -0.06238134 0.14546315 0.55153865
-0.28702816 0.0307538 -0.2414131 0.10468873 0.074112825 0.32421714 -0.31871757 -0.19659917
0.063074894 0.1494181 -0.11993272 -1.0443563 0.29613242 -0.157472 0.043422386 -0.2511202

fc1.bias f4 [64]
00000000: 04a2 b6be b2e4 8dbe dddf a7be 37c7 443e
00000010: 4109 f43d fd29 e3be f1a2 0a3f 9134 5e3f
00000020: e98a e3be 99c3 763f 4218 a1be b70c 9f3f
00000030: 2209 b4be 52ba 19bf 7194 983e 399a 773f
00000040: 1967 323e da58 973e 48f8 d3be fa48 093f
00000050: 5d29 903d 20c5 8b3e 2e40 c7be e9d4 babe
00000060: 31e1 2dbf 66c4 a23e 8bce 003f a086 973f
00000070: 5a3c 2ebf f413 c13e fd1f 303e 1b3c 603f
00000080: dae6 4cbe b64e c0be b5ed bbbd 539b 673f
00000090: b2d7 413f 59ac 25bf 8dfe 6ebf be18 eb3e
000000a0: b2b2 2f3e 5408 e6be 370c 2f3e f0d0 ca3e
000000b0: 0db2 69be 3311 e43e 917e 27bf 74b0 bd3d
000000c0: 5810 72bd 6f25 963e 661a b8be 2ac0 63bf
000000d0: edd0 1bbf f007 803f 3466 8ebe 67d5 633e
000000e0: ea06 9ebe 7024 d8be b436 843e b46c 7b3f
000000f0: 54db ac3e d162 a3bd 7260 cc3e bbb9 903e
-0.35670483 -0.27713543 -0.32787982 0.1921662 0.119158275 -0.44367972 0.5415488 0.8679896
-0.44441918 0.9639221 -0.3146382 1.2425755 -0.35163218 -0.6004993 0.29800752 0.967197
0.17422141 0.29559976 -0.4140036 0.5362698 0.070391394 0.27298832 -0.38916153 -0.36490563
-0.6792174 0.31790465 0.5031516 1.1837959 -0.6806084 0.37710536 0.17199703 0.87591714
-0.20009938 -0.37560052 -0.091761984 0.9047138 0.7571975 -0.64716107 -0.93357164 0.45917314
0.1715801 -0.4492823 0.17094503 0.39612532 -0.22821827 0.44544372 -0.654275 0.092621714
-0.059097618 0.29325435 -0.3595764 -0.88965094 -0.6086567 1.0002422 -0.2781235 0.22249375
-0.3086465 -0.422153 0.25822985 0.9821274 0.33761084 -0.07977832 0.39917332 0.282667

fc2.weight f4 [64, 64]
00000000: 3562 d43e 726a 883d 378e 5f3d 34cb 9c3d
00000010: 3b59 7b3c ac68 323f 3287 32bf c89b ab3e
00000020: 209b b83e b8c8 38be a204 173e c8ba 4e3e
00000030: a575 7c3e aca6 bf3e fa5a ac3e 8d27 8e3e
00000040: 2855 20bf 01eb 95bd d153 173e 0acd 76be
00000050: 30fb 9ebe b6c1 d4be 6a5e d9bd 2c02 773e
00000060: a55d 023f ef86 7c3e 6155 b7bd 5eab 753e
00000070: 6976 343e a42b 4bbf ddcd 1abe cd43 993e
00000080: 0e93 de3d 1047 c83d 8923 0d3f a4a3 ae3e
00000090: f12d babe dea0 efbc d4e5 c73d 065f 653e
000000a0: 62e6 87bf a646 253e 2c3d b6be 57a6 1d3f
000000b0: e814 253f 8049 063e 484f 7b3e 9361 78bf
000000c0: e2d4 b1bc 9c4c 8f3e 9cbc 45bc b63f 5bbf
000000d0: 589c 38be 7c4e 493e 818d 053f afa3 d0be
000000e0: e7ae 793d 5cd1 39be 3b2f 223f da6f 443e
000000f0: b0fd 1cbe ecfb 3d3f 5396 9dbd b432 563f
00000100: 03f8 193f caa1 913f de36 843e d0aa f63d
00000110: 8119 063d 5b1e 403f 50a7 7fbf ab1e 983c
00000120: a7f3 143e 5b19 e2be 2ff8 373e 1d91 833e
00000130: 244d a73e a864 153f e4c2 47bd 1a82 8d3e
00000140: a148 bd3e de75 703e 64a9 c33e 8f16 f13e
00000150: 3377 bbbe 37d2 093f 0d9b f03e 0003 063f
00000160: f002 d73e 3fe7 d3bd a585 d93e 5e2c 78bd
00000170: 27c3 233e d41a d7be 6230 32be 9d51 4a3e
00000180: c24f ec3e 1cea ab3e 5346 743e 97d3 4a3e
00000190: dfff 10bf 9494 11bd e0c4 6a3f a443 92bd
000001a0: f145 36bf 1d56 3cbd 2f07 17bf f238 043f
000001b0: fa5f 123f d7fc b93e 53a4 873f 03a2 5dbf
000001c0: 49f7 9f3e 0025 e13e aabc fc3e 91eb 403f
000001d0: 5000 df3e 938d a03d 4911 01bb c30d 5b3e
000001e0: bd47 3a3e 9997 eb3e cf47 693d 1903 043e
000001f0: c12d 263f a228 4f3f 51a7 1d3e 5df8 fa3e
00000200: 4065 363f 9d24 12bd 3bb5 dcbe 3522 813e
00000210: 40e7 c8bd e90e 463f 76f5 79be afed 733e
00000220: 5316 aabe 791a 17be 3cf6 92bc ca07 cf3d
00000230: 18d6 28be 5c58 e93e 3eb5 353f 2796 113f
00000240: 1ff7 56bf 998b 15be 9483 503e c02a 95be
00000250: 7193 21be 3d80 4abf d0e5 e63c b1e3 ca3e
00000260: d6a2 e93e d202 693e 979f 8ebd f848 263e
00000270: 62be 233e 95e8 53bf 2358 b1bd 41d8 fb3e
00000280: ba08 f53e 6dc4 4e3e 7cb9 dc3e c9be c53e
00000290: 634c 66be fcb3 33be 6ff9 35be 6b75 3a3d
000002a0: f906 e8be 710f ac3e 1851 9bbe 069b 863f
000002b0: fea0 503f 488b 20bc a925 8abd 46fa 51bf
000002c0: 775c fcbd bb36 ec3e 9ea3 2bbd 2ed3 16bf
000002d0: 772a 023e 483c 133e aada 693f 8fad f3bc
000002e0: 9b8d aabe 6fa3 eabe 71af 373f 6492 eb3d
000002f0: f627 c7be c8af 373e b1b9 4ebe 1998 5f3f
00000300: 3c3c 0a3f aa4b 923e 6e87 b8bc 88af 4b3d
00000310: 40f9 103d c490 203f ff0e 66bf 0e6c 8b3e
00000320: c791 b2bc 4603 63be 2d81 883e c467 ff3d
00000330: 25c6 883e 2a72 0c3f 93ad debd 4f41 c53e
00000340: 0731 96be af37 273d d414 933e 3b2b d13d
00000350: 13dd 9dbe 61ad 3d3e c1d5 13bd a949 283f
00000360: 1ed0 183f 4db9 8abe 46bc 19bd bcec 193e
00000370: 7e67 903d c2ed 1ebf aaaf 0cbd fda8 ed3e
00000380: 7b38 c23e d968 a93e 8256 dc3e 51da ae3e
00000390: ea71 83be 8efa e13e 4e20 ac3e de1e 803e
000003a0: 1e3e 2cbf fae9 693e 3a44 12bf 07d7 1e3f
000003b0: 75bb 3c3f 8bf3 f93e 0fbc 403f 5110 86bf
000003c0: 4475 553e 2325 a73e 0c04 a83e 3707 853d
000003d0: 9c8c 1d3d d6ca ed3d 6d03 6e3e 3403 503d
000003e0: 416b 8e3e ab75 1a3e 7c8c ac3e e940 503e
000003f0: 4c31 a63e 1596 833f 7039 8b3d 5176 593f
0.41481176 0.06660928 0.054578986 0.076559454 0.015341098 0.69690967 -0.6973754 0.3351729
0.3605585 -0.18045318 0.14747861 0.20188439 0.24654253 0.37431848 0.3366316 0.2776455
-0.6262994 -0.07320214 0.14778067 -0.24101654 -0.31051016 -0.4155404 -0.10613711 0.24121922
0.5092414 0.24660848 -0.089518316 0.23991153 0.17623295 -0.79363465 -0.15117593 0.2993454
0.10867892 0.09779179 0.5513235 0.34109223 -0.36363176 -0.029251512 0.09760633 0.2239953
-1.0617182 0.16140231 -0.35593545 0.6158194 0.64485025 0.13113976 0.24541962 -0.97023886
-0.021707956 0.27988136 -0.012068894 -0.8564409 -0.1802839 0.19658846 0.5216904 -0.4074988
0.060957815 -0.1814627 0.6335332 0.19183293 -0.15331149 0.7421253 -0.07694688 0.83671117
0.6014406 1.1377499 0.2582311 0.12044299 0.032739166 0.7504632 -0.99864674 0.018569311
0.14546071 -0.4415997 0.17965768 0.2569665 0.3267604 0.58356714 -0.048769847 0.27638322
0.36969474 0.23482463 0.38215172 0.47087523 -0.3661438 0.5383639 0.46993294 0.5234833
0.4199443 -0.10346841 0.42484775 -0.060589187 0.15992413 -0.42012656 -0.17401269 0.19757695
0.461546 0.3357705 0.23854952 0.19807278 -0.5664043 -0.035542086 0.9170666 -0.07141808
-0.7120047 -0.04598056 -0.58995336 0.5164939 0.571777 0.36325714 1.0597023 -0.86575335
0.3124335 0.4397354 0.4936269 0.75359446 0.43554926 0.07839503 -0.001969414 0.21391968
0.18191428 0.46014097 0.056953248 0.12891807 0.64913565 0.80921376 0.15395857 0.4901761
0.71248245 -0.03567945 -0.43107018 0.2522141 -0.098097324 0.773665 -0.24410042 0.23821138
-0.33220157 -0.14756192 -0.01793968 0.101089075 -0.1648792 0.45575225 0.7097968 0.5686974
-0.83970827 -0.14604034 0.20362693 -0.29134178 -0.157789 -0.79101926 0.028185755 0.3962684
0.45632046 0.22754982 -0.06964033 0.16238773 0.15990594 -0.82776767 -0.08659389 0.49188426
0.4785822 0.20192118 0.43110263 0.3862212 -0.22490077 -0.17549127 -0.17770933 0.045522135
-0.4531782 0.3360553 -0.30335307 1.0516059 0.81495655 -0.009798832 -0.06745464 -0.8202251
-0.12322324 0.46135506 -0.041904084 -0.58915985 0.12711512 0.14378464 0.9134928 -0.029745845
-0.3331116 -0.45827815 0.7175208 0.11502531 -0.38897675 0.17938149 -0.20188023 0.8734146
0.5399816 0.28573352 -0.022525515 0.049727947 0.035393953 0.62720895 -0.8986663 0.27230877
-0.021798028 -0.22169217 0.26661053 0.124709636 0.26713672 0.548617 -0.108729504 0.3852639
-0.2933428 0.04082459 0.28726828 0.10213324 -0.3083273 0.1852317 -0.036092523 0.65737396
0.5969256 -0.27094498 -0.037533067 0.15031713 0.070509896 -0.6208154 -0.034347214 0.4641799
0.37933716 0.33087805 0.4303475 0.34150937 -0.25672847 0.4413647 0.33618397 0.2502355
-0.67282283 0.22843161 -0.57135355 0.62046856 0.73723537 0.4881862 0.75286955 -1.0473729
0.20845515 0.3264552 0.32815588 0.06495517 0.038464174 0.116109535 0.23243494 0.050784305
0.27816203 0.1508395 0.3370093 0.20337261 0.32459486 1.0280176 0.06798065 0.8494616

fc2.bias f4 [64]
00000000: 9765 d13c 1d1c 69bd 41db c6bd 23a9 163e
00000010: 3c79 d73e 657d 003e 8449 503e aeae 973e
00000020: 0f4c 2c3e c1f1 4b3e 4a3a f23c c37c 23be
00000030: a67d 5f3e 1f44 5f3f b15d 53be 8c8f 133e
00000040: 2f5b 5f3e 3d43 82bd 91e2 fdbd bc18 4c3e
00000050: eedd d83e b0e1 303d a739 d33e 7859 973e
00000060: 9e83 983d a567 b13e a3c4 123e eeff e23b
00000070: 064d 57bf ad91 863f 3609 bc3e 3f82 22bd
00000080: 0abb 703e af4d 993e 7380 fcbe 8583 5dbe
00000090: 6de1 94bd c6d6 90bd d07f 233e 184f a13e
000000a0: 4c53 0a3a 8246 3d3f 84c0 3c3f 6148 b13e
000000b0: e789 743f 795d a4be d934 c43c 5d9b 373e
000000c0: dd99 db3d 6432 343f 8a78 023e 2b3b 0e3e
000000d0: 2637 8f3e 6be7 2d3e e7e3 f73d 274b 1c3e
000000e0: 4608 fe3d b938 b9bd f4fd bcbd 8b46 bc3d
000000f0: 04ef 60bd 1986 ce3e b270 1e3f 46e4 063d
0.025561137 -0.056911577 -0.09709788 0.14712958 0.42084682 0.12547834 0.20340544 0.29625458
0.16825889 0.1991644 0.02956881 -0.15965562 0.21825275 0.8721332 -0.20641209 0.14410228
0.21812128 -0.06360481 -0.1239673 0.1993131 0.4235682 0.043183982 0.41254923 0.29560447
0.07446979 0.34649387 0.14332823 0.006927482 -0.84101903 1.0513207 0.36725777 -0.039674994
0.2350885 0.2994208 -0.4931675 -0.21632202 -0.07269559 -0.07072215 0.15966725 0.31505656
0.00052766944 0.7393571 0.73731256 0.34625533 0.9552292 -0.32102564 0.023950981 0.1793036
0.107227065 0.7038939 0.12741295 0.13889758 0.27971762 0.1698281 0.12104016 0.15263043
0.12403922 -0.09044022 -0.09228125 0.091931425 -0.054915443 0.40336683 0.6189071 0.032932542

fc3.weight f4 [4, 64]
00000000: 0b66 12bf 96be ccbe 9f14 c3bf 07f3 d5be
00000010: 8d9a 443f 4967 d9be 921a a2be 6269 adbe
00000020: c66a c9be 34a6 fbbe f7f2 0fbf 2681 34bf
00000030: dfdc 13bf 08af cc3f 050c f53f b411 dbbe
00000040: 4586 47be 8f19 26bf 1ab6 d93d 8972 1cbe
00000050: 1649 06be d1ed 6cbe bc26 26be 2bf2 b0be
00000060: 54d8 e5be 0a44 783f 4f13 9fbe bfcd bbbe
00000070: 1a8b 0dbf b7ce d83f 5a71 843f 2c73 2ebf
00000080: 0c17 2ebe 025b adbe 4610 0fbf f197 6fbf
00000090: 36c0 cf3d 3bf9 03bf e2e1 04bf cf34 a83f
000000a0: d88f 5cbe 2c7c 0240 bb2c b03f e358 d3be
000000b0: 19ed f63f 8248 1abf 639f 09bf e523 d1be
000000c0: c799 fdbe b8ad b53f 8b4f a6be 7e94 b5be
000000d0: f00a c4be 57e1 fcbe ecbe 12bf 1a32 e4be
000000e0: e78c ecbe 888d 12bf 40f0 603c 7169 30bf
000000f0: a1da 9bbf 760e adbf f769 eb3f de28 20bf
00000100: 7ec2 8abf 7642 f1be e8dd 70bf f24e fdbe
00000110: 18ba 9e3f 6db6 b5be 28df ddbe 30f3 cfbe
00000120: d464 e1be b2e1 16bf 4858 2ebf 5fb4 00bf
00000130: 644f 3abf bc6d b43f 5bd0 ed3f 842d e7be
00000140: 2e30 d8be ce08 07bf b6da a5ba 1baf 89be
00000150: 536f 2abf b31c aebe fb09 2f3e 7be3 3cbe
00000160: b116 3abe 9c1c 1a3f 97a8 f6bb 81f4 11bf
00000170: e6b5 8fbf 290d e13f 83a6 333f 9041 0cbf
00000180: b980 0cbe 4d6c 8fbe d468 32bf 2a9c 6dbf
00000190: d476 153d 48b9 16bf b5de e6be 7ebc a43f
000001a0: 5994 d0ba 8f5a d83f 5d50 c83f aa18 353f
000001b0: 14d5 0e40 b9dd 3cbf dbdc 2ebf 3920 dbbe
000001c0: 2a88 dfbe 8d8f cf3f 8b3d bcbe 2b27 1ebf
000001d0: 46fe e6be 03f9 b8be a7cf 54bf 3123 08bf
000001e0: 92ff 16bf b845 0abf 2033 31bd dfa8 19bf
000001f0: f45c cfbf ee25 bbbf dd3a e83f 4824 0bbf
00000200: f18c f4bd e92f 0ebf 86f1 9c3d 8398 8ebe
00000210: 8de8 bf3f f17a b3be c3fe 09bf e411 bdbe
00000220: 4dcc a4be b812 ffbe 5c93 24bf 03db eabe
00000230: 0e89 0dbf c108 ca3f ec33 2bbe fc95 75be
00000240: 2fba 85bf 5ca5 e8be 1c1f 523d bb21 4bbf
00000250: ead1 8bbf ab00 e93d a8ea 47bf d652 0dbf
00000260: f051 54bf fd9c eb3e 8afd 71bf 59bf 46bf
00000270: f0bd ccbe 1432 ab3f b685 bd3f a5f6 fdbe
00000280: d98f 2fbf 8c9c aabf 429b 28be 78d7 80be
00000290: 6f7b d43d dcf5 13bf 18cc c7be a123 943f
000002a0: 1a32 163f 9e9c e03f 23e5 c73f b3f9 91bf
000002b0: c142 9c3f 5bc3 0bbf 68cd ccbe fe72 17bf
000002c0: 1fbb d7be 60de d53f f6aa 08bf 8deb 0abf
000002d0: 329e 3cbf 6ec5 92be c42d 24be 8a97 1cbf
000002e0: b196 8ebe f1f5 afbe 9eb3 c23d 2fef dbbe
000002f0: 3e27 d5be e4c2 7ebd f352 e13f 4b60 1fbf
00000300: f491 42bf 1815 9bbe 4b1c 02bf 0546 06bf
00000310: a558 663e 4637 f4be 4a3c 0cbf 9ddb 0cbf
00000320: 5d83 eebe 269f b2be 8c79 6cbe 2de4 9bbf
00000330: df85 ffbe 3301 ed3f a3db 8a3f 4f61 10bf
00000340: 32e5 b0be 5afb 1dbf 741f 393d 2c72 44bf
00000350: ed84 68be 9f5e 1ebf 64be 29bf 3022 13bf
00000360: ee7f c7be 6f6c b13f e706 38bf 826c b6be
00000370: b3ca 3cbf 43ee da3f 385a b53f 24a1 93be
00000380: 0187 25bf c5c0 febe 482b 3bbf f91a d0be
00000390: 66af 7f3d 0aa5 8fbe e886 09bf 7ec6 943f
000003a0: e4a0 08bf d872 0c40 3dd4 973f fd63 2abf
000003b0: 7724 be3f 20fa d4be 8f53 abbe b98e 09bf
000003c0: 47fe c2be 7b2e d03f a43e 02bf 984d 8ebe
000003d0: 1001 23bf 7f0e 0cbf 52a2 05bf 3f9a c6be
000003e0: c842 f8be 3bfb 04bf e843 1ebd 06ee d0be
000003f0: 7a08 fbbe 9466 85bf 2c1a da3f 4a85 efbe
-0.57186955 -0.39989156 -1.5240668 -0.41786978 0.76798326 -0.42461613 -0.31660897 -0.33869463
-0.39339274 -0.4915024 -0.5623011 -0.70509565 -0.577589 1.5990915 1.9144293 -0.42786944
-0.19484814 -0.6488275 0.10630436 -0.15278067 -0.13113818 -0.23137595 -0.16225713 -0.3455976
-0.44891608 0.9697882 -0.3106942 -0.3668041 -0.5529038 1.6938084 1.0347092 -0.6814449
-0.17000979 -0.33858496 -0.55884206 -0.9359122 0.10144083 -0.5155217 -0.5190717 1.3141116
-0.21539247 2.0388288 1.3763651 -0.41278753 1.9291106 -0.6026689 -0.5375883 -0.40847698
-0.49531385 1.419364 -0.3248256 -0.35464853 -0.38289595 -0.4939067 -0.57322574 -0.44569474
-0.4620125 -0.5724721 0.013729155 -0.6891089 -1.2176095 -1.3520038 1.8391713 -0.6256236
-1.0840604 -0.47121018 -0.940886 -0.49474293 1.2400541 -0.35490742 -0.43334317 -0.40615225
-0.44022238 -0.58938134 -0.68103456 -0.50275224 -0.7277739 1.4095988 1.857921 -0.45151913
-0.42224258 -0.5274781 -0.0012653682 -0.26891407 -0.6657612 -0.3400627 0.17093651 -0.18446152
-0.18172719 0.60199904 -0.0075274217 -0.5701371 -1.1227386 1.7582141 0.7017595 -0.5478754
-0.13720979 -0.28012314 -0.69691205 -0.9281641 0.036490276 -0.58876467 -0.45091787 1.2870023
-0.0015913352 1.6902636 1.5649525 0.7074076 2.2317553 -0.7377582 -0.6830575 -0.4279802
-0.43658572 1.6215683 -0.36765704 -0.61778516 -0.4511587 -0.3612748 -0.8312935 -0.531787
-0.5898372 -0.5401263 -0.043261647 -0.600233 -1.6200242 -1.462095 1.8142964 -0.54352236
-0.11940945 -0.55541855 0.076632544 -0.27850732 1.4992844 -0.35054734 -0.5390436 -0.36927712
-0.3218712 -0.4981897 -0.6428735 -0.45870218 -0.55287254 1.5783921 -0.16719025 -0.23982996
-1.0447444 -0.4543866 0.0512992 -0.79348344 -1.0923436 0.113770805 -0.7809243 -0.5520452
-0.82937527 0.4601821 -0.94527495 -0.77635723 -0.3998866 1.3374658 1.480643 -0.49602237
-0.6857887 -1.3329024 -0.16465476 -0.2516439 0.103751056 -0.57797027 -0.390229 1.1573373
0.586702 1.7547796 1.5616802 -1.1404327 1.2207872 -0.54594964 -0.40000463 -0.5915984
-0.4213495 1.6708488 -0.53385866 -0.5426567 -0.73678887 -0.28666252 -0.16033083 -0.6116873
-0.27849343 -0.34367326 0.095069155 -0.4295592 -0.41631502 -0.06219758 1.7603439 -0.62256306
-0.76003957 -0.3028953 -0.5082442 -0.5245059 0.22494753 -0.4769842 -0.54779494 -0.55022603
-0.46584597 -0.34887046 -0.23093241 -1.2179009 -0.49906823 1.8515991 1.0848278 -0.5639848
-0.34549862 -0.6171166 0.04519601 -0.7673671 -0.22706957 -0.6186313 -0.6630614 -0.5747404
-0.3896479 1.3861216 -0.7188553 -0.3562966 -0.73746794 1.7103962 1.4168158 -0.28833878
-0.64659125 -0.49756446 -0.73112917 -0.40645579 0.062423132 -0.28055602 -0.53721476 1.1623075
-0.533705 2.1945095 1.1861645 -0.6655882 1.4854878 -0.4159708 -0.33462188 -0.537334
-0.38084623 1.6264185 -0.5087683 -0.27793574 -0.63673496 -0.5470962 -0.52200806 -0.38789555
-0.4848845 -0.5194585 -0.03863898 -0.40806597 -0.49029905 -1.0421929 1.7039237 -0.4678138

fc3.bias f4 [4]
00000000: c369 863e 4fb9 cd3e d80c 313d 8663 e6be
0.26252565 0.40180442 0.04322514 -0.44997805
