agent_dqn_lunarlander_260.pth (torch, 22375 bytes, 6 tensors)

fc1.weight f4 [64, 8]
0	0x3ca08b0a	0.019597549
1	0x3e4c0dc0	0.1992712
2	0x3f09835f	0.5371608
3	0xbe87a5fb	-0.2649382
4	0x3f72e099	0.9487396
5	0x3e4c5505	0.19954307
6	0x3f08df6e	0.53465927
7	0xbe845ebb	-0.25853524
8	0x3dea6780	0.11445522
9	0x3e43f534	0.19136506
10	0x3ecaf56e	0.39640373
11	0x3ea3839d	0.3193635
12	0xbfaf614b	-1.3701566
13	0x3dc4be78	0.096066415
14	0xbf254ceb	-0.6457049
15	0x3e0dc10c	0.13843173
16	0xbf4eb9d9	-0.8075233
17	0xbe950349	-0.2910407
18	0xbe592891	-0.21206881
19	0xbf1d1616	-0.61361825
20	0x3f3457c3	0.70446414
21	0x3e982bec	0.2972101
22	0x3c753449	0.014966079
23	0xbe5bf696	-0.21480784
24	0x3e3f0231	0.1865318
25	0xb963c6c0	-0.00021722447
26	0xbe3f3fce	-0.18676683
27	0xbeebe20c	-0.46070898
28	0xbf111acb	-0.5668151
29	0xbec866ac	-0.39140832
30	0x3e940a3d	0.2891406
31	0x3e4523a7	0.19251882
32	0xbec91c62	-0.39279467
33	0x3f8a6267	1.081128
34	0x3fc90cff	1.5707091
35	0x3f75dc8f	0.9603967
36	0xbfac732b	-1.3472646
37	0x3eefb4ab	0.46817526
38	0xbd8ea96b	-0.06965908
39	0xbd6241b0	-0.055238426
40	0xbe374267	-0.17896424
41	0x3fc37a2b	1.5271658
42	0x3f068062	0.52539647
43	0xbfeb295d	-1.8371998
44	0xbf59c36e	-0.8506383
45	0xbc15a9fd	-0.009134767
46	0xbe8a1ac1	-0.26973537
47	0x3e236481	0.15956308
48	0xbef29bca	-0.47384483
49	0xbfe68cff	-1.8011779
50	0xbca19162	-0.019722644
51	0x3d444759	0.047919605
52	0xbe873319	-0.26406172
53	0xbdb9df43	-0.09075787
54	0x3f1cbbc4	0.6122401
55	0x3da81cc4	0.082086116
56	0xbdb16c8b	-0.08663281
57	0xbe8920d9	-0.26782873
58	0x3f9bec5f	1.218151
59	0xbf01eee3	-0.5075514
60	0xbda61202	-0.081089035
61	0xbd21d9a8	-0.039514214
62	0x3d99d89d	0.07512019
63	0x3ed60c45	0.41806236
64	0xbf99d2d7	-1.2017468
65	0xbe830744	-0.2559148
66	0xbf2207d6	-0.63293207
67	0xbf0e7a30	-0.55655193
68	0xbe28aa1f	-0.16471146
69	0xbe1adbeb	-0.15122955
70	0x3e2936a0	0.16524744
71	0x3db85ae3	0.0900171
72	0x3e97d820	0.29657078
73	0x3e5ed6f9	0.21761693
74	0x3f108234	0.56448674
75	0xbecaca87	-0.3960764
76	0x3f6bbce9	0.9208513
77	0x3dcd009a	0.1000988
78	0x3dd62d61	0.10457874
79	0x3e9a5997	0.30146477
80	0x3f9b8d65	1.2152525
81	0xbeb96b00	-0.36214447
82	0x3f6dcb96	0.9288877
83	0xbefe0476	-0.49612778
84	0xbe42121b	-0.18952219
85	0xbb1b2087	-0.002367051
86	0x3ecef623	0.40422162
87	0x3e1ccc0b	0.15312211
88	0xbdb4af8a	-0.08822544
89	0xbf88378f	-1.0641955
90	0xbed06f78	-0.40710044
91	0xbf22316c	-0.6335666
92	0xbd95b7d5	-0.07310454
93	0xbc697fbf	-0.014251648
94	0x3d5ad309	0.053423915
95	0x3eb93097	0.36169884
96	0xbd97bf41	-0.07409526
97	0xbe8d8318	-0.2763908
98	0xbd6999e1	-0.057031516
99	0x3e73def1	0.23815514
100	0xbf25a2f3	-0.64701766
101	0xbf07de37	-0.5307345
102	0xbed2fd5e	-0.4120893
103	0xbea16e04	-0.31529248
104	0xbf81cf36	-1.0141361
105	0xbf667d55	-0.9003499
106	0xbea9d82c	-0.3317274
107	0xbef396f8	-0.47576118
108	0x3f38deb1	0.722148
109	0x3e7627c1	0.24038602
110	0x3dfaafd9	0.122405715
111	0xbb48132c	-0.0030529005
112	0x3da7fb38	0.08202213
113	0xbec1fcec	-0.37888277
114	0x3f5ae2ca	0.855023
115	0xbea84ec8	-0.32872605
116	0xbf1617e1	-0.58630186
117	0xbe076408	-0.13221753
118	0xbe25e31c	-0.16199917
119	0x3e40bfe7	0.18823205
120	0x3f5438fd	0.8289946
121	0xbe9266be	-0.2859401
122	0x3ebe911a	0.3722008
123	0xbeaf8047	-0.34277555
124	0x3e9f40fe	0.31104273
125	0x3e9edda9	0.31028488
126	0x3e9039aa	0.28168994
127	0x3d8c9931	0.068651564
128	0xbf87c5fd	-1.0607296
129	0xbf8a5cbd	-1.0809551
130	0xbeccc4ea	-0.39993984
131	0x3ef71702	0.4825974
132	0x3f21351f	0.6297168
133	0x3dd29fc0	0.10284376
134	0xbcdd6ae4	-0.027028508
135	0x3e868dd7	0.2628009
136	0x3cd93ef0	0.026519269
137	0x3e5c5ddd	0.21520181
138	0x3e30ae9b	0.17254107
139	0x3e84c2ea	0.25929958
140	0x3f0260db	0.5092904
141	0x3f11ef07	0.5700535
142	0x3df596ec	0.11991677
143	0x3d8922fe	0.06696127
144	0xbed73138	-0.42029738
145	0xbdb49333	-0.088171385
146	0x3e5fc0ae	0.21850845
147	0x3eb3de54	0.3513056
148	0xbef28a92	-0.47371346
149	0xbef090ee	-0.46985573
150	0xbef91720	-0.48650455
151	0xbe857f57	-0.26073715
152	0x3e87c15f	0.26514718
153	0xbea1dbe0	-0.31613064
154	0x3f0626a6	0.5240272
155	0x3d8b0246	0.06787543
156	0xbf59e60d	-0.85116655
157	0xbd7bfb58	-0.061518997
158	0xbe805ff9	-0.2507322
159	0x3f0892f0	0.5334921
160	0xbecbc57a	-0.397991
161	0xc059cc0a	-3.4030786
162	0x3e1806aa	0.14846292
163	0xbfa18453	-1.2618507
164	0x3e50a972	0.20377138
165	0xbecc96c3	-0.39958772
166	0x3ecf5738	0.4049623
167	0x3d7aa5cb	0.06119327
168	0xbdf10d80	-0.11770153
169	0x3ea9153b	0.3302401
170	0x3f965dac	1.1747336
171	0xbf3d91bb	-0.7405049
172	0x400320b1	2.0488703
173	0xbf3097be	-0.6898154
174	0x3e7e6bd6	0.24845824
175	0x3ee7ffb7	0.45312282
176	0xbf51ef92	-0.8200618
177	0xbf1d0200	-0.61331177
178	0xbf808d12	-1.0043051
179	0xbf3a3c25	-0.72748023
180	0xbd236a99	-0.03989658
181	0x3cc18cda	0.023626734
182	0x3e05220d	0.1300127
183	0x3d92e8a7	0.07173281
184	0xbe78f7d4	-0.24313289
185	0x3e8eac4d	0.2786583
186	0xbeaad1f4	-0.33363307
187	0x3d5b7f90	0.05358845
188	0x3efa8add	0.4893407
189	0x3f059c3b	0.52191514
190	0x3eb812a9	0.35951737
191	0xbd0c0050	-0.034179986
192	0xbef08b42	-0.46981245
193	0xbf1a875d	-0.603628
194	0xbdad04d6	-0.08448188
195	0xbe64025c	-0.22266525
196	0x3f31d717	0.69468826
197	0x3dbe2f36	0.092863485
198	0x3e88b7a8	0.2670262
199	0x3e05aef1	0.13055016
200	0xbdc8ea4b	-0.09810313
201	0xbdade18b	-0.084902845
202	0xbe880474	-0.26565897
203	0xbf1ec5c0	-0.6202049
204	0x3d847316	0.064672634
205	0x3e4254de	0.18977687
206	0x3eace729	0.3377011
207	0x3e8f15eb	0.2794641
208	0x3d837204	0.06418231
209	0xbe1c5fb3	-0.15270881
210	0x3f025bbb	0.5092122
211	0x3c1b2d40	0.009471238
212	0x3b54e62a	0.0032485821
213	0x3e80a4a0	0.251256
214	0xbd6fd667	-0.05855408
215	0xbe773c1b	-0.24144022
216	0x3eaf0c72	0.34189183
217	0xbe8ff820	-0.28118992
218	0x3de0b9c3	0.10972931
219	0xbf34295b	-0.70375603
220	0x3eb833e5	0.35977092
221	0x3ee51f91	0.44750646
222	0x3ebb4e4a	0.36583167
223	0x3e9fe977	0.31232807
224	0x3ed53456	0.41641492
225	0xbdea32cc	-0.1143547
226	0x3ec20070	0.3789096
227	0xbeb7b1dd	-0.35877886
228	0xbf887123	-1.0659527
229	0xbece1532	-0.40250546
230	0xbcc2fd2d	-0.023802364
231	0x3ee96812	0.45587212
232	0xbe35bd96	-0.17748103
233	0xbe395863	-0.18100123
234	0x3de5202f	0.11187779
235	0xbf37427e	-0.71585834
236	0x3f784d04	0.96992517
237	0x3cb66204	0.022263534
238	0xbd505270	-0.05085987
239	0x3e1f84fe	0.15578076
240	0xbf014807	-0.5050053
241	0xbe28c884	-0.1648274
242	0xbda2a000	-0.07940674
243	0xbe8eeafa	-0.27913648
244	0x3e496b5f	0.19669865
245	0x3df5c519	0.12000484
246	0x3f253dbb	0.6454732
247	0x3ca1e3ad	0.019761885
248	0x3ea52db5	0.32261434
249	0xbd08f485	-0.033436317
250	0xbeae29bd	-0.3401622
251	0xbe5f982e	-0.21835396
252	0x3facbf10	1.3495808
253	0x3de00b67	0.10939675
254	0xbde937c8	-0.113875926
255	0xbe9eb5f9	-0.3099821

fc1.bias f4 [64]
0	0xbd078b71	-0.033091966
1	0x3efc0584	0.49222958
2	0xbe2e6fe6	-0.17034873
3	0x3eba95dc	0.3644246
4	0x3fa10974	1.258101
5	0x3fa88672	1.316603
6	0x3ed06dc2	0.4070874
7	0xbed4d037	-0.41565105
8	0xbe3a84b6	-0.18214688
9	0x3ee87cb7	0.4540765
10	0xbee651f6	-0.44984406
11	0x3fa2be45	1.2714316
12	0xbf58beeb	-0.8466632
13	0xbee4c849	-0.44684055
14	0xbf06e593	-0.5269405
15	0x3e21b728	0.15792525
16	0xbe74f104	-0.23920065
17	0x3d933a0b	0.07188805
18	0xbeedcc99	-0.46445158
19	0xbe306334	-0.17225343
20	0x3f1dc3bc	0.6162679
21	0x3d4fa5f7	0.050695386
22	0xbe770d91	-0.24126269
23	0xbe91a6b5	-0.284475
24	0xbed7689d	-0.42072
25	0x3ef825a5	0.4846622
26	0xbf2e1e2c	-0.6801479
27	0xbe12ac6a	-0.14323583
28	0xbee33f52	-0.44384247
29	0x3f12f325	0.5740226
30	0x3ec42414	0.38308775
31	0x3f4d38ea	0.8016497
32	0xbedcc1e3	-0.43116674
33	0x3f3a585f	0.72791094
34	0xbf259096	-0.64673746
35	0xbe86a0db	-0.26294598
36	0x3ea489b3	0.32136306
37	0x3c9e9dbe	0.019362327
38	0x3e466c14	0.19377166
39	0xbebaafa3	-0.36462125
40	0xbe88449a	-0.2661484
41	0x3dc80276	0.097660944
42	0x3ebfc0c2	0.3745175
43	0x3ee5fd12	0.4491964
44	0x3f426974	0.7594216
45	0x3f3526c3	0.7076227
46	0xbcda011a	-0.026611853
47	0x3e4f3091	0.2023337
48	0xbf0048e1	-0.50111204
49	0x3e0e808c	0.13916224
50	0x3f462f42	0.7741586
51	0x3ff3a760	1.9035454
52	0xbefa2713	-0.48857936
53	0x3f1572b1	0.5837813
54	0xbeaced36	-0.33774728
55	0xbe2fb44b	-0.1715862
56	0x3e632bfc	0.22184747
57	0xbe68698d	-0.22696514
58	0xbd392144	-0.04519774
59	0xbefc2ab1	-0.4925132
60	0x3f473987	0.77822155
61	0xbee13f0c	-0.43993413
62	0xbe9b7f7a	-0.30370694
63	0xbea29aff	-0.31758878

fc2.weight f4 [64, 64]
0	0xbb8f1880	-0.0043669343
1	0xbcc2a90d	-0.02376225
2	0x3f8306da	1.0236466
3	0xbe0881f7	-0.13330828
4	0x3e83a0bb	0.25708565
5	0x3e53ac89	0.20671286
6	0x3beaa01e	0.0071602007
7	0x3e655e51	0.2239926
8	0x3e2407fb	0.1601867
9	0x3e1172ab	0.14203899
10	0x3f4df0fb	0.8044583
11	0xbf4e8941	-0.8067818
12	0x3eb777dc	0.35833633
13	0x3f8b7df5	1.0897814
14	0x3f44b599	0.76839596
15	0x3e0cb949	0.13742556
16	0x3f31979f	0.6937198
17	0x3d38b1e5	0.04509153
18	0x3eabe40f	0.33572432
19	0x3f728c47	0.94745296
20	0xbe9842de	-0.29738516
21	0x3df35218	0.118808925
22	0x3eaad57e	0.33366007
23	0xbcdb47ea	-0.02676769
24	0x3f53ad18	0.82685995
25	0xbabaacfd	-0.0014242228
26	0x3e0aec8b	0.13566796
27	0x3f4148fa	0.7550198
28	0x3f2c5049	0.67310005
29	0x3dc7cd4c	0.09755954
30	0xbbba5c16	-0.005687247
31	0x3c021173	0.0079387305
32	0x3e54f717	0.20797382
33	0xbed976e2	-0.42473513
34	0x3f66e4df	0.9019298
35	0x3f3cd8fc	0.7376859
36	0x3dd657f3	0.10465994
37	0x3e7e7b65	0.24851759
38	0x3f0a6853	0.54065436
39	0x3e0110fa	0.12604132
40	0x3eb92254	0.36159003
41	0xbee0e81c	-0.43927085
42	0x3dd9584c	0.106125444
43	0x3dfa6d0d	0.12227831
44	0xbf407723	-0.7518179
45	0x3e1eef83	0.15521054
46	0x3e48479c	0.19558567
47	0x3e9fa7da	0.31182748
48	0xbda0505f	-0.078278296
49	0xbe85fcbc	-0.26169384
50	0xbf448dfc	-0.7677915
51	0xbc6425ff	-0.013925075
52	0xbdf10334	-0.11768189
53	0xbe1a4505	-0.15065391
54	0x3f14321d	0.57888967
55	0xbdb513e8	-0.088416874
56	0xbc88c2fc	-0.016694538
57	0x3eeae476	0.45877427
58	0x3e7d1bb2	0.24717596
59	0x3eb03bd2	0.3442064
60	0xbe55f17d	-0.20892902
61	0x3edd5684	0.4323007
62	0x3f7c3664	0.98520494
63	0x3ee73a8d	0.45161858
64	0x3e495ee8	0.1966511
65	0x3e0431f1	0.12909676
66	0x3f7d0b07	0.9884495
67	0x3edb96bc	0.4288844
68	0xbe95e3fc	-0.292755
69	0x3e357015	0.17718537
70	0x3dc6c105	0.09704784
71	0x3e690511	0.22755839
72	0x3f162de2	0.5866376
73	0x3e2f9b58	0.17149103
74	0x3f173bda	0.590757
75	0xbf7cf089	-0.9880453
76	0x3f6644ad	0.8994854
77	0x3f78d92e	0.9720639
78	0x3f6f8269	0.93558365
79	0x3e91c72b	0.28472266
80	0x3f260df2	0.6486503
81	0x3de76dba	0.113002256
82	0x3ee7688d	0.45196953
83	0x3ee65be3	0.4499198
84	0xbd8e3211	-0.06943143
85	0x3d4ed362	0.05049456
86	0x3eef8bc0	0.46786308
87	0x3eadc0f3	0.3393627
88	0x3e939142	0.2882176
89	0x3e6c1211	0.23053767
90	0x3e5c45e6	0.21511039
91	0x3e6e303b	0.23260586
92	0x3ec2e923	0.38068494
93	0x3ea2b1d1	0.31776288
94	0x3e4dcfc4	0.20098788
95	0x3ec8fba9	0.392545
96	0x3f3fb5e3	0.7488691
97	0xbf6e2595	-0.93026096
98	0x3f6c2155	0.9223836
99	0x3f9243f9	1.1426994
100	0x3e12fd1b	0.14354365
101	0x3e877929	0.26459625
102	0xbfa52841	-1.290291
103	0x3edd0201	0.4316559
104	0x3f5461a1	0.8296147
105	0x3ebcac3a	0.36850148
106	0x3db26c71	0.0871209
107	0x3e89fe36	0.2695176
108	0xbece0348	-0.40236878
109	0x3f361751	0.7112933
110	0x3e252409	0.16127028
111	0x3ed82725	0.42217365
112	0x3f8a1a3c	1.0789256
113	0xbdc3d1d6	-0.095615074
114	0xbe937c70	-0.28805876
115	0xbdcd9a29	-0.10039169
116	0x3e9f8811	0.31158498
117	0x3eb70d6c	0.35752428
118	0x3ec145db	0.37748608
119	0x3e81254c	0.25223768
120	0x3e97111d	0.29505244
121	0x3eeb7971	0.4599109
122	0x3e6cb1fe	0.23114774
123	0x3f14e29d	0.58158284
124	0xbf16f2c9	-0.5896421
125	0x3f21220e	0.6294259
126	0x3f8464fc	1.0343318
127	0x3e7beaa2	0.24601224
128	0x3eadeb00	0.33968353
129	0x3f6e094d	0.9298294
130	0x3f5aaa84	0.85416436
131	0x3eb83978	0.35981345
132	0xbd546e6c	-0.05186312
133	0x3ea69570	0.32535887
134	0xbee9dcc6	-0.4567625
135	0x3ed922cd	0.42409363
136	0x3f70bd21	0.9403859
137	0x3ea0f265	0.31434932
138	0x3f21dfb3	0.6323196
139	0xbf96158c	-1.1725326
140	0x3f6181d4	0.88088727
141	0x3f3ff9cf	0.7499055
142	0x3f51af94	0.81908536
143	0x3e8a50ad	0.27014676
144	0x3f22e319	0.63627774
145	0x3e3a933d	0.1822023
146	0x3f15e7ca	0.5855681
147	0x3ed31bdc	0.41232193
148	0xbecec7ae	-0.4038672
149	0xbe5a5e14	-0.2132495
150	0x3f341522	0.70344746
151	0x3e7d045a	0.24708691
152	0x3e96b8e4	0.29437935
153	0x3e8ab9b4	0.27094805
154	0x3e857b78	0.26070762
155	0x3e0539ff	0.13010405
156	0x3ed272e0	0.41103268
157	0x3e7c49d7	0.24637543
158	0x3dbc2e7b	0.09188553
159	0x3f28107c	0.65650153
160	0x3ea3a845	0.31964317
161	0xbf5d0941	-0.86342245
162	0x3f173855	0.5907033
163	0x3f6f32e7	0.93437046
164	0x3ea6d820	0.32586765
165	0xbe27a176	-0.16370186
166	0xbf987829	-1.191167
167	0x3ef1c739	0.47222307
168	0x3f6dbbea	0.9286486
169	0x3f44099b	0.76577157
170	0x3f620e8f	0.88303465
171	0x3f1fecf2	0.62470925
172	0xbe2b75af	-0.16744111
173	0x3f231466	0.63703
174	0x3e0a7567	0.13521348
175	0x3e524f80	0.2053814
176	0x3ed523d3	0.41628894
177	0x3f214592	0.6299678
178	0xbe314bfe	-0.17314145
179	0x3dbf36fd	0.0933666
180	0xbe58bcce	-0.21165773
181	0x3ef0c96c	0.47028673
182	0x3eb47c49	0.35251072
183	0x3f1f2edd	0.6218088
184	0x3e83d27b	0.2574652
185	0x3f323565	0.69612724
186	0x3e093ea5	0.13402803
187	0x3eb5423d	0.35402098
188	0xbf27891a	-0.65443575
189	0x3eb85fb3	0.36010513
190	0x3faa19ec	1.3289161
191	0x3e91da43	0.28486833
192	0x3e6ea4ef	0.23305105
193	0x3de8c7ab	0.11366209
194	0x3f776d34	0.96651006
195	0x3e8d5704	0.2760545
196	0x3c23aceb	0.009989957
197	0x39a265fc	0.00030975032
198	0x3d22446c	0.039616033
199	0x3e30f4f2	0.17280939
200	0x3f496ad0	0.7867861
201	0x3d767677	0.06017157
202	0x3f806653	1.0031227
203	0xbfa8b224	-1.3179364
204	0x3f3f5df7	0.74752754
205	0x3f92109f	1.1411322
206	0x3f68ab3d	0.9088629
207	0x3e6896f4	0.22713834
208	0x3f21903f	0.6311073
209	0x3e7a3fa0	0.24438334
210	0x3f16b16f	0.5886449
211	0x3f19734f	0.5994157
212	0xbd6ae79d	-0.05734979
213	0x3e49cc88	0.19706929
214	0x3f79de1d	0.9760454
215	0x3ed70ba4	0.4200107
216	0x3ea23f1a	0.31688768
217	0x3e9d5a75	0.30733076
218	0x3efd05a4	0.49418366
219	0x3f1a580c	0.602906
220	0x3f27ddd2	0.65572846
221	0x3e280402	0.16407779
222	0x3e908c4b	0.28232035
223	0x3ef06926	0.46955222
224	0x3f0e259e	0.5552615
225	0xbf747405	-0.9548953
226	0x3eb192f6	0.34682435
227	0x3f9ab408	1.2086191
228	0x3eddf223	0.43348798
229	0x3e9909b9	0.2989023
230	0xbf8848c0	-1.0647202
231	0x3f19aca8	0.6002908
232	0x3f784011	0.9697276
233	0xbe231ad0	-0.15928197
234	0x3d366ba8	0.044536263
235	0x3e905eb2	0.28197247
236	0xbe8cd045	-0.27502647
237	0x3f03441b	0.51275796
238	0x3e78e5df	0.24306439
239	0x3ed6100e	0.41809124
240	0x3f430279	0.7617565
241	0x3eb713a6	0.35757178
242	0xbf115cea	-0.567824
243	0x3b2e031c	0.0026552146
244	0xbd402ed1	-0.046919648
245	0x3e7ad1ea	0.24494138
246	0x3ef37552	0.47550446
247	0x3f0c5b08	0.548264
248	0x3eb24e46	0.34825343
249	0x3f4bc082	0.7959062
250	0x3ec0dd68	0.3766892
251	0x3f08bcb2	0.53412926
252	0xbef95b43	-0.4870244
253	0x3f77be31	0.96774584
254	0x3f9263ea	1.1436741
255	0x3ef3469f	0.47514817

fc2.bias f4 [64]
0	0xbe5aca03	-0.21366124
1	0xbdd872f8	-0.105688035
2	0x3df00b74	0.117209345
3	0xbe0a3039	-0.13494958
4	0x3dbb796b	0.09154018
5	0xbd9983ff	-0.074958794
6	0x3e9a2cc0	0.30112267
7	0x3d91b579	0.07114691
8	0xbe885d98	-0.26633906
9	0x3ece9721	0.40349677
10	0xbea94f62	-0.33068377
11	0x3d869f5b	0.065733634
12	0x3fbcd1ae	1.4751489
13	0xbe6c0116	-0.23047289
14	0x3ddd27e5	0.10798625
15	0x3ee84b46	0.4536993
16	0xbe696e9d	-0.22796102
17	0xbe323741	-0.1740389
18	0x3e00d8b5	0.12582667
19	0x3e68e4cf	0.22743534
20	0xbe36e368	-0.17860186
21	0xbeb99e82	-0.36253744
22	0xbe0ffcf4	-0.14061338
23	0xbe553340	-0.20820332
24	0xbbc1dbd8	-0.0059161
25	0xbda78cfb	-0.08181187
26	0x3ea4ed8e	0.3221249
27	0x3d37326c	0.04472582
28	0xbd9c1bad	-0.07622466
29	0x3eb0a8ee	0.34503883
30	0xbd12554e	-0.035725884
31	0xbd912ca5	-0.070885934
32	0xbe39f9ae	-0.18161651
33	0x3e9afb43	0.30269822
34	0xbe1d5e0a	-0.15367904
35	0x3e737247	0.23774062
36	0x3e68e5de	0.22743937
37	0xbe7cc7f3	-0.2468565
38	0x400d36c4	2.2064676
39	0x3da60ecb	0.0810829
40	0xbd77a803	-0.060462963
41	0x3cdce055	0.026962439
42	0xbd0bd232	-0.034136005
43	0xbe3886c9	-0.18020166
44	0x3e68890d	0.2270853
45	0xbe803637	-0.25041363
46	0x3d684612	0.05670745
47	0x3c90ddee	0.01768395
48	0x3dda567a	0.10661025
49	0x3b636ab5	0.0034701054
50	0x3ea861a9	0.3288701
51	0x3f2f0946	0.68373525
52	0x3e5e4022	0.21704152
53	0xbe67b4a1	-0.22627498
54	0xbf3ac1a2	-0.7295171
55	0x3e790c09	0.24320997
56	0x3e027c53	0.12742738
57	0x3f359baa	0.7094065
58	0xbe41da7f	-0.18931006
59	0xbcb7446b	-0.022371491
60	0x3e1add09	0.1512338
61	0xbd164632	-0.036688037
62	0x3f7e006e	0.99219406
63	0xbe8a1420	-0.2696848

fc3.weight f4 [4, 64]
0	0xbf39ea05	-0.7262271
1	0xbf011b4f	-0.50432295
2	0xbf306abb	-0.6891286
3	0xbf73c609	-0.9522405
4	0xbf38d7e0	-0.722044
5	0xbec8aa9c	-0.39192665
6	0xbf39b5ff	-0.7254333
7	0xbf86edb7	-1.0541295
8	0xbf269532	-0.65071404
9	0xbf64c666	-0.8936523
10	0xbe9cc5f0	-0.30619764
11	0xbf61851c	-0.88093734
12	0x3fe3d4d2	1.7799323
13	0xbf6eb8e7	-0.9325089
14	0xbefca96f	-0.49348018
15	0xbf3c789c	-0.73621535
16	0xbf51bf58	-0.8193259
17	0xbf7fcf29	-0.99925476
18	0xbe8874a1	-0.2665148
19	0x4062ab61	3.5417101
20	0xbf823205	-1.0171515
21	0xbee4cea5	-0.44688907
22	0xbf5f09ff	-0.8712463
23	0xbf79c95a	-0.97572863
24	0xbf1fa703	-0.62364215
25	0x3c8056e9	0.015666442
26	0xbf5258ac	-0.8216655
27	0xbf5e541d	-0.86847097
28	0xbeee8a89	-0.4659007
29	0xbf647912	-0.8924724
30	0xbf46175d	-0.773794
31	0xbf76cb24	-0.9640372
32	0xbf0bc3ec	-0.5459583
33	0x3defae2d	0.11703143
34	0xbf89a63c	-1.0753856
35	0xbf7011c7	-0.93777126
36	0xbf430af5	-0.76188594
37	0xbf8377cf	-1.0270938
38	0x40108318	2.2580013
39	0xbee28f56	-0.44249982
40	0xbea65fbd	-0.32494918
41	0xbf064230	-0.52444744
42	0xbf4d3fd0	-0.80175495
43	0xbf553cd5	-0.8329595
44	0xbf326551	-0.69685847
45	0xbf2b3889	-0.6688314
46	0xbf5cf228	-0.86307
47	0xbf331962	-0.69960606
48	0xbf2431f0	-0.641387
49	0xbf5877d4	-0.84557843
50	0xbf1367a7	-0.57580036
51	0xbfc29cd6	-1.5204113
52	0xbf0fce07	-0.5617375
53	0xbf06d1bb	-0.52663773
54	0x402c76b3	2.6947448
55	0xbf08bc5e	-0.53412426
56	0xbeff75c7	-0.49894544
57	0x3f2402de	0.64066875
58	0xbf1fb0fb	-0.62379426
59	0xbfadfd04	-1.3592839
60	0xbf2e2801	-0.6802979
61	0xbeec1076	-0.4610631
62	0x3f8146c5	1.0099722
63	0xbf173607	-0.59066814
64	0xbf09f8fd	-0.5389555
65	0xbf877549	-1.0582668
66	0xbf4e4da6	-0.8058723
67	0xbef524bd	-0.47879592
68	0xbf15f924	-0.58583283
69	0xbf346797	-0.70470566
70	0xbf57f5a7	-0.8435921
71	0xbed52132	-0.4162689
72	0xbf3de9e3	-0.7418501
73	0xbf56132b	-0.83623
74	0xbf16c4f3	-0.5889427
75	0xbf0cbc65	-0.5497497
76	0x3f47054a	0.77742445
77	0xbe90cf63	-0.28283224
78	0xbf16e45c	-0.589422
79	0xbf782b17	-0.9694075
80	0xbf043264	-0.5163939
81	0xbf14073c	-0.5782354
82	0xbf8cd5b5	-1.1002718
83	0x405605f3	3.344113
84	0xbf465935	-0.7747987
85	0xbf2ea63e	-0.68222415
86	0xbf56b833	-0.83874816
87	0xbf143689	-0.57895714
88	0xbf1658bf	-0.58729166
89	0x3db06d0a	0.086145476
90	0xbf17a0cb	-0.59229726
91	0xbf286403	-0.65777606
92	0xbf4e69fc	-0.8063047
93	0xbf460c5f	-0.77362627
94	0xbf08a7e8	-0.53381205
95	0xbf57710c	-0.8415687
96	0xbf169c1a	-0.5883194
97	0xbf378b30	-0.7169676
98	0xbfa0fe03	-1.2577518
99	0xbf302575	-0.68807155
100	0xbf130e58	-0.5744376
101	0xbf912b49	-1.1341335
102	0x401ca25c	2.4474096
103	0xbf1a0c1f	-0.60174745
104	0xbf88a867	-1.0676392
105	0xbf2d1a12	-0.67617905
106	0xbfaa9de6	-1.3329437
107	0xbf414d59	-0.7550865
108	0xbf6273c0	-0.8845787
109	0xbf2b7f2b	-0.6699092
110	0xbf180de1	-0.5939618
111	0xbf23f0a4	-0.64039063
112	0xbf14429d	-0.57914144
113	0xbea95574	-0.33073008
114	0xbe93c3e1	-0.2886038
115	0xbff3da21	-1.9050943
116	0xbf52a50f	-0.8228311
117	0xbd9394ee	-0.072061405
118	0x40484fd8	3.1298733
119	0xbe9e1735	-0.3087708
120	0xbe90cb3a	-0.2828005
121	0x3fa33b56	1.2752483
122	0xbfa40f40	-1.2817154
123	0xbefb592d	-0.49091473
124	0xbf214eb7	-0.63010734
125	0xbf197468	-0.59943247
126	0x3f909887	1.1296548
127	0xbf3737c9	-0.71569496
128	0xbfa29e71	-1.2704602
129	0xbf2ee3f9	-0.6831661
130	0xbf1fa32f	-0.62358373
131	0xbf263156	-0.6491903
132	0xbf44657a	-0.7671734
133	0xbf0ade9e	-0.54245937
134	0xbf32d2f8	-0.6985316
135	0xbf6fdd8f	-0.93697447
136	0xbf346c22	-0.704775
137	0xbef7ebba	-0.48422033
138	0xbff517f2	-1.9147933
139	0xbf6ff3a2	-0.9373113
140	0x3f75472f	0.9581174
141	0xbf5bc3e5	-0.85845786
142	0xbf3e13bb	-0.74248856
143	0xbe9650c6	-0.293585
144	0xbf25f404	-0.64825463
145	0xbe7a90bd	-0.24469276
146	0xbdcfa409	-0.10138709
147	0x408041ca	4.008031
148	0xbf473c77	-0.7782664
149	0xbea1ee62	-0.31627184
150	0xbf25febc	-0.6484182
151	0xbf67543e	-0.9036292
152	0xbf11d64d	-0.5696762
153	0xbcefec92	-0.02928761
154	0xbf4ad616	-0.7923292
155	0xbe44436e	-0.19166347
156	0xbf6bbe0a	-0.9208685
157	0xbec4c09e	-0.38428205
158	0xbf363a4e	-0.71182716
159	0xbf1650a7	-0.58716816
160	0xbe701bbe	-0.23448083
161	0x3f2185d6	0.6309484
162	0xbef0fa6c	-0.47066057
163	0xbf4dbac9	-0.80363137
164	0xbf82c541	-1.0216447
165	0xbf09cac0	-0.53824997
166	0x40428cdf	3.039848
167	0xbf338fbc	-0.70141196
168	0xbf681903	-0.90663165
169	0xbeaf2a85	-0.34212127
170	0xbeaba5ad	-0.33524838
171	0xbf46ad0a	-0.77607787
172	0xbf161e10	-0.5863962
173	0xbf765f0f	-0.962388
174	0xbf133b06	-0.5751194
175	0xbeb413e3	-0.35171422
176	0xbe9f4467	-0.31106874
177	0xbf59c489	-0.85065514
178	0xbf8e6781	-1.1125337
179	0xbfd48e09	-1.6605846
180	0xbf7a1502	-0.97688305
181	0xbf9a0dc9	-1.2035457
182	0x3f822f74	1.0170732
183	0xbfd7732f	-1.6832026
184	0xbf5ab63e	-0.8543433
185	0x3e97438b	0.2954372
186	0xbe3a58b2	-0.18197897
187	0xbea84367	-0.32863924
188	0xbf9a16ff	-1.2038268
189	0xbf4284e3	-0.7598402
190	0x3f9be8d6	1.2180431
191	0xbf210e8f	-0.6291284
192	0xbdf284b0	-0.118417144
193	0xbf2b6981	-0.6695786
194	0xbf3b369e	-0.73130214
195	0xbf3141d3	-0.69241065
196	0xbf38549f	-0.7200412
197	0xbf24c178	-0.6435771
198	0xbf5f0706	-0.8712009
199	0xbf0979df	-0.53701586
200	0xbf30e057	-0.69092315
201	0xbf687359	-0.90801007
202	0xbf8b2c3a	-1.0872872
203	0xbf3dcee6	-0.74143827
204	0x3febda8b	1.8426069
205	0xbf34803b	-0.70508164
206	0xbef8fd03	-0.48630533
207	0xbfa10849	-1.2580653
208	0xbf4bf8e2	-0.7967664
209	0xbf2418c2	-0.6410028
210	0xbf18a717	-0.5962996
211	0x4065404a	3.582049
212	0xbf397355	-0.7244161
213	0xbf4e9e42	-0.8071023
214	0xbf4accc4	-0.792187
215	0xbf8a7101	-1.0815736
216	0xbf055054	-0.52075696
217	0x3d6c861b	0.05774508
218	0xbf8ce9cc	-1.1008849
219	0xbf0ef9f3	-0.5585014
220	0xbef1a0eb	-0.47193083
221	0xbf87d745	-1.061257
222	0xbef43efe	-0.4770431
223	0xc005d241	-2.0909579
224	0xbf2709fd	-0.65249616
225	0xbf0e760c	-0.55648875
226	0xbf4a8580	-0.79109955
227	0xbf221b3c	-0.63322806
228	0xbf85bdae	-1.0448511
229	0xbf4bd493	-0.7962124
230	0x4011e44a	2.2795587
231	0xbf172cf0	-0.59052944
232	0xbec066b2	-0.3757835
233	0xbf224963	-0.6339323
234	0xbf3b3a31	-0.7313567
235	0xbf0b4961	-0.5440884
236	0xbf1b1096	-0.60572183
237	0xbefcc971	-0.49372438
238	0xbf0545d3	-0.5205967
239	0xbf13d74c	-0.5775039
240	0xbf173196	-0.5906004
241	0xbf0e9037	-0.55688804
242	0xbfb2f81c	-1.3981967
243	0xbf23e426	-0.6402
244	0xbf1c0ee0	-0.609602
245	0xbf43e0c3	-0.76514834
246	0x406162c1	3.5216525
247	0xbefa35b3	-0.48869094
248	0xbe97ce94	-0.29649794
249	0x3f507306	0.8142551
250	0xbf214ea5	-0.6301063
251	0xbfc73553	-1.5563148
252	0xbef4ecc3	-0.47836885
253	0xbefaf370	-0.49013853
254	0x3f2c2197	0.67238754
255	0xbf0063fb	-0.5015256

fc3.bias f4 [4]
0	0x3e9a2168	0.30103612
1	0x3ec8301f	0.39099213
2	0x3f680a6e	0.90640914
3	0x3f37fc96	0.7186979
