checkpoint.pth (torch, 22127 bytes, 6 tensors)

fc1.weight f4 [64, 8]
-1.0758108 -0.32404146 0.102044135 1.1715258 -0.09842527 0.043581802 0.33292463 -0.0010184639
0.23190483 0.30751342 -0.2943526 -0.133658 -0.7359661 0.49408677 0.01098889 -0.35894638
-0.29955506 -1.4698659 -0.20413521 -1.0146328 -0.0451218 -0.2702038 -0.2992171 -0.055193823
-0.2744917 0.5344363 0.43337643 0.76575196 -0.53330696 -0.301039 -0.37233502 -0.27424538
-1.5221088 -0.2740189 -0.47000578 -0.22750904 0.9287986 0.12115052 -0.034472328 -0.028444303
-0.679144 -0.1587799 -0.37210894 -0.64359486 0.49267575 0.23229434 0.55389 0.10679143
0.12163524 0.009982384 0.3668188 -0.39913374 -0.7627161 -0.20081212 0.30385816 0.1718299
-0.03785991 -0.21912915 0.7243621 0.041218333 -0.88745135 0.09043256 0.36337313 0.14218317
0.031077344 0.09017471 0.2679757 0.18021913 -1.3342924 -0.23975717 0.17912558 -0.26961637
0.20807533 -0.9879471 0.20313175 -0.971291 -0.1258078 -0.65321726 0.2557295 0.16914144
-1.1506125 -0.5691634 0.1744393 -0.21893485 0.3122946 -0.074330345 -0.2880606 0.2713248
0.08250494 -0.60435236 -0.1848553 -0.5423666 1.0054232 0.12856407 -0.3525515 0.536334
-0.112212 0.19087858 -0.19126771 -0.15345904 -0.19394134 -0.8797149 0.10430998 0.01649981
-0.24559185 -2.1715724 -0.3166528 -1.8654428 -0.0702249 -0.13296232 -0.03395936 0.03578997
-0.3886795 0.1715499 1.1821663 -0.19758429 -0.33569008 1.0450186 0.004849703 -0.9531251
0.032072507 -1.738709 -0.15282172 -0.9356935 -0.09526109 -0.13575797 -0.08378764 -0.34256214
0.32997596 0.94904006 0.6106807 -0.5837786 -0.16969778 1.4718429 -0.24943694 -0.51678085
-0.20237763 0.4719765 0.2451159 -1.3800185 -1.34554 0.2670243 -0.14585558 -0.26535165
-0.91607535 -0.14823133 0.118253 0.12731734 -3.2877 0.092485264 0.2595362 0.14575341
0.4992378 -0.6293939 -2.6704228 1.5633032 0.9388179 -0.3350582 0.07390579 0.72911686
0.6535665 -0.4787332 0.4635784 -0.3456023 -0.5977768 -0.24934465 0.25397676 0.5150354
0.080359936 -0.23630522 -0.5279249 0.093507536 1.1860392 0.8296339 0.12768379 -0.0770836
-0.20162457 -0.42396235 -0.26966956 -0.5754197 0.5607381 0.16535245 0.49301684 0.62267494
-1.4789028 -0.7343226 -0.021972293 -0.5239563 0.73809546 0.027769795 0.05104763 0.0409327
1.1097983 -0.6420227 0.4987458 -1.128669 -0.8647538 -0.2794723 0.22217612 -0.017378261
0.20525473 -0.119845994 -0.12834647 0.21125685 -1.7385302 -0.16147558 -0.30192846 0.54171544
-0.6424348 0.29108104 -0.120108366 0.38571894 -1.6556853 -0.34373572 -0.7851421 -0.21367419
0.26458612 0.56743604 -0.06758895 0.7669126 -0.23421752 -0.8391955 -0.6818874 -0.6538143
-0.71077156 -0.055821486 0.24132757 0.10750665 0.43989366 0.8011377 0.37539366 -0.24427064
-0.6111218 0.34562632 0.4098445 0.7160373 -1.6829469 -0.29590684 0.18553908 0.4887824
-0.24207081 -0.11261788 0.6663185 -0.020569284 -0.6494988 -0.1375224 0.29919034 0.43560082
-0.3557637 0.7907554 0.41509596 0.14325972 -0.24250515 -0.43924087 -0.004801347 0.053553905
00000000: 2bb4 89bf c3e8 a5be 84fc d03d 8ff4 953f
00000010: 3093 c9bd d582 323d 1975 aa3e fa7d 85ba
00000020: 7678 6d3e 6672 9d3e 62b5 96be a5dd 08be
00000030: 4668 3cbf f1f8 fc3e bf0a 343c d2c7 b7be
00000040: 485f 99be 9124 bcbf d208 51be 7ddf 81bf
00000050: a3d1 38bd 2758 8abe fc32 99be eb12 62bd
00000060: 2d8a 8cbe d1d0 083f 84e3 dd3e 5208 443f
00000070: ce86 08bf c921 9abe b2a2 bebe e469 8cbe
00000080: 76d4 c2bf 354c 8cbe 99a4 f0be 21f8 68be
00000090: bfc5 6d3f c41d f83d db32 0dbd 0704 e9bc
000000a0: 62dc 2dbf 3397 22be 1085 bebe a2c2 24bf
000000b0: ff3f fc3e 91de 6d3e bccb 0d3f 77b5 da3d
000000c0: e61b f93d 278d 233c accf bb3e 425b ccbe
000000d0: 5d41 43bf b1a1 4dbe 4c93 9b3e 2df4 2f3e
000000e0: fe12 1bbd 6463 60be cb6f 393f 8ed4 283d
000000f0: 0330 63bf b534 b93d 0b0c ba3e 7798 113e
00000100: ea95 fe3c 85ad b83d 1c34 893e 5d8b 383e
00000110: 18ca aabf e782 75be b26c 373e 280b 8abe
00000120: b311 553e 1aea 7cbf c501 503e 87a6 78bf
00000130: c3d3 00be 3f39 27bf faee 823e 6a33 2d3e
00000140: 4547 93bf b1b4 11bf 37a0 323e 7530 60be
00000150: 14e5 9f3e 823a 98bd ae7c 93be 16eb 8a3e
00000160: 5af8 a83d d6b6 1abf b54a 3dbe 8ad8 0abf
00000170: b5b1 803f 4da6 033e a181 b4be 2f4d 093f
00000180: 68cf e5bd ad75 433e afdb 43be 5e24 1dbe
00000190: 8f98 46be ff34 61bf 79a0 d53d 9c2a 873c
000001a0: 6e7c 7bbe 0bfb 0ac0 5120 a2be d4c6 eebf
000001b0: 13d2 8fbd 4627 08be f818 0bbd 8198 123d
000001c0: 0001 c7be c7aa 2f3e 3a51 973f 8953 4abe
000001d0: 92df abbe 2bc3 853f 42ea 9e3b 0200 74bf
000001e0: 765e 033d 048e debf 4c7d 1cbe 9c89 6fbf
000001f0: 3f18 c3bd 2304 0bbe db98 abbd 4e64 afbe
00000200: 9cf2 a83e 4af4 723f 9255 1c3f 8472 15bf
00000210: 41c5 2dbe 5965 bc3f 666c 7fbe c04b 04bf
00000220: 153c 4fbe e7a6 f13e aaff 7a3e 72a4 b0bf
00000230: a83a acbf 69b7 883e 2a5b 15be 2cdc 87be
00000240: ea83 6abf f4c9 17be a12e f23d 7a5f 023e
00000250: ad69 52c0 ea68 bd3d eee1 843e 6240 153e
00000260: 199c ff3e f51f 21bf 35e8 2ac0 521a c83f
00000270: 5f56 703f c08c abbe eb5b 973d 67a7 3a3f
00000280: 2250 273f 851c f5be 265a ed3e c9f2 b0be
00000290: e607 19bf 3454 7fbe 3e09 823e 5cd9 033f
000002a0: c093 a43d fff9 71be 1626 07bf e180 bf3d
000002b0: 22d0 973f e362 543f 8abf 023e 02de 9dbd
000002c0: ac76 4ebe 9811 d9be 2112 8abe b54e 13bf
000002d0: 888c 0f3f 2752 293e b46c fc3e a067 1f3f
000002e0: b04c bdbf 91fc 3bbf 3dff b3bc 0022 06bf
000002f0: d3f3 3c3f 7b7d e33c 5217 513d 0ca9 273d
00000300: df0d 8e3f 9a5b 24bf 9c5b ff3e 3a78 90bf
00000310: 8160 5dbf fe16 8fbe 2382 633e db5c 8ebc
00000320: 4c2e 523e d171 f5bd 426d 03be b753 583e
00000330: 2888 debf db59 25be 5e96 9abe ddad 0a3f
00000340: 9b76 24bf 9308 953e 60fb f5bd f47c c53e
00000350: 7fed d3bf 21fe afbe 13ff 48bf 68cd 5abe
00000360: d577 873e 7d43 113f 136c 8abd 6254 443f
00000370: b8d6 6fbe 84d5 56bf 2c90 2ebf 6060 27bf
00000380: 20f5 35bf 12a5 64bd 931e 773e 722c dc3d
00000390: be39 e13e 5c17 4d3f 9933 c03e 1522 7abe
000003a0: 7a72 1cbf eff5 b03e 23d7 d13e 384e 373f
000003b0: ce6a d7bf 1a81 97be f5fd 3d3e b041 fa3e
000003c0: 69e1 77be 34a4 e6bd d993 2a3f ea80 a8bc
000003d0: 8e45 26bf acd2 0cbe 7a2f 993e 1207 df3e
000003e0: a926 b6be f26e 4a3f 7587 d43e adb2 123e
000003f0: 4553 78be 2ee4 e0be 9e54 9dbb 575b 5b3d

fc1.bias f4 [64]
-0.13055925 0.78525686 -0.27793214 0.0067816186 0.024104215 -0.090307645 0.32782346 -0.5038538
-0.50698394 0.48181412 -0.33618325 -0.19473395 -0.19313887 0.71344376 0.07657855 -0.19053447
0.005403396 1.1555071 0.21713622 -0.0636616 -0.18539956 -0.17265625 -0.13449147 -0.0824416
-0.19005667 -0.18547063 -0.57262594 0.007046569 0.4653018 -0.1511984 -0.23177525 0.8971187
-0.43445158 -0.68056107 -0.13387613 -0.25997975 -0.288421 1.0167817 0.21960264 0.4674456
-0.56018 0.75592434 -0.03660223 -0.14480223 -0.21934852 -0.11278437 0.08222044 0.24347484
-0.0034133727 0.35600075 1.0081351 0.4132609 1.372703 -0.0058576497 0.48231822 -0.017410181
0.7655652 0.74947363 0.50181735 1.4187925 -0.5968322 -0.32618704 0.05019042 -0.09025639
00000000: 53b1 05be 9806 493f 1f4d 8ebe 5738 de3b
00000010: 3476 c53c 37f3 b8bd 7ad8 a73e 90fc 00bf
00000020: b3c9 01bf 57b0 f63e 3620 acbe 5668 47be
00000030: 32c6 45be 40a4 363f 37d5 9c3d 781b 43be
00000040: f90e b13b a8e7 933f f558 5e3e 0361 82bd
00000050: 62d9 3dbe cdcc 30be 22b8 09be 24d7 a8bd
00000060: 379e 42be 03ec 3dbe 9d97 12bf e8e6 e63b
00000070: 0a3c ee3e c1d3 1abe 7e56 6dbe 92a9 653f
00000080: 7070 debe 4039 2ebf d316 09be 111c 85be
00000090: ebab 93be e725 823f 84df 603e 0855 ef3e
000000a0: f567 0fbf 4284 413f 38ec 15bd 0947 14be
000000b0: e69c 60be 7efb e6bd 3163 a83d 7851 793e
000000c0: e4b2 5fbb bb45 b63e 920a 813f ef96 d33e
000000d0: bbb4 af3f 87f1 bfbb 6af2 f63e cc9f 8ebc
000000e0: 15fc 433f 81dd 3f3f 1a77 003f fe9a b53f
000000f0: ffc9 18bf fd01 a7be 7894 4d3d 58d8 b8bd

fc2.weight f4 [64, 64]
0.30135933 0.36686677 0.3346045 0.68895596 0.37419564 0.36217308 0.24990904 0.89280623
0.9878997 0.22534278 0.43869707 -0.15606834 -0.45637763 -0.54839534 -0.58659005 0.6678908
-2.4075317 0.09116147 0.14634596 -0.38375568 0.20566535 -0.037844427 0.16572712 0.38750973
0.5519806 0.44920245 -0.14543004 1.3557409 -0.084631555 -0.09820121 0.16961673 0.1680986
0.32829672 0.60381854 0.51241964 0.27636707 0.22525413 -0.5996176 0.6830256 0.33833206
0.2999789 0.018754205 -0.18851309 0.96906036 -2.252852 0.17752501 0.5536143 0.09155377
-0.7372902 0.070204265 -0.06125278 -0.35403898 0.2655728 0.24338965 -1.9193625 0.50834405
-0.5665771 -0.11004155 -0.5816141 0.38657576 -0.75769913 0.31354892 0.89180356 0.3890583
-0.24140042 -0.34781545 0.6974169 0.42070714 0.20490733 0.22757941 0.24783927 0.8060623
1.2070445 0.22828203 0.9522561 -0.012940989 -0.107365124 -0.4038646 0.30053896 0.836263
-0.26532713 0.06525148 -0.34361023 -0.60426706 0.4264077 -0.08653288 0.10575808 0.3912851
0.92768556 0.9753972 -0.5099694 0.62271786 0.092476666 0.15842669 0.49758378 -0.4012649
0.8327871 0.60809445 0.10100983 0.23790973 0.30335638 -0.5922694 0.10040195 -0.18154411
0.5771858 0.059056774 -1.2061737 0.89677817 0.40855294 0.5797267 0.46985602 0.6290577
0.5927482 0.3430265 -0.16232753 0.11657618 -0.35704082 0.37897065 -1.1461228 0.041384127
0.36471897 0.34388563 -0.24975172 -0.03671874 0.3103778 0.521914 0.4737406 0.46559092
0.28688803 -0.6048965 0.8032783 0.06586266 1.258586 0.08733234 0.11396591 0.3405414
0.18993562 0.0071565015 0.98397326 1.0586894 -0.22016157 0.040736955 -0.06560049 0.6148241
-1.2580537 -0.34262466 -0.53892446 0.71945465 0.2848742 0.881849 0.20862307 1.1305095
0.81227314 0.6745072 0.47553876 0.020777645 -0.0047249547 -0.1801145 0.15014076 -0.3994626
0.88752 0.56644845 0.28662694 0.28826723 0.5254619 0.14101307 0.256944 0.3071609
0.71457046 0.03534189 1.0212588 0.4018329 -0.72514474 0.24483567 0.17180397 0.60253763
-0.6426923 0.3429677 -0.13368748 -0.015101447 -0.7583106 0.16994682 0.20065987 1.2248454
-1.7738497 -0.011034664 -0.08023486 -0.49308294 -0.292315 -0.096107036 0.64017403 0.22522548
0.8748912 0.66883886 -0.24204881 0.07940104 0.6178698 -0.033913273 0.41076142 0.5603558
0.5825023 -0.35944083 1.7721826 -0.005181635 -0.82330835 -1.3187003 0.8790226 -0.43935853
-0.5632302 0.68896735 0.29456103 -0.19115086 0.4898192 -0.111275636 0.7526559 1.5312035
0.5187544 1.2058082 -0.5103928 0.29762843 0.3027144 -0.013762739 0.47717202 0.58159065
0.34480438 0.12213786 0.30399233 0.411873 -0.40310597 -1.7974255 0.1723131 -0.07905814
-1.6009358 -0.17701867 0.25314292 0.6741526 -1.1625534 0.5849974 -1.5766047 0.26280692
-0.8634089 -0.06634959 0.14461735 -0.2916792 1.0545063 -0.32239532 -1.225305 0.7936992
1.8764254 0.74536145 -1.1571099 0.49925882 -0.1428629 0.67440194 -0.09313253 0.7852227
00000000: c54b 9a3e f6d5 bb3e 4851 ab3e 6b5f 303f
00000010: 9296 bf3e c06e b93e 28e8 7f3e f38e 643f
00000020: ffe6 7c3f 42c0 663e e79c e03e 61d0 1fbe
00000030: 54aa e9be a363 0cbf c42a 16bf e4fa 2a3f
00000040: 0015 1ac0 ddb2 ba3d b7db 153e a07b c4be
00000050: f099 523e c202 1bbd 5fb4 293e ad67 c63e
00000060: 9a4e 0d3f ddfd e53e 9deb 14be eb88 ad3f
00000070: 4f53 adbd b71d c9bd 02b0 2d3e 0a22 2c3e
00000080: 8216 a83e da93 1a3f ef2d 033f fc7f 8d3e
00000090: 05a9 663e 8a80 19bf c4da 2e3f dc39 ad3e
000000a0: d696 993e 6ba2 993c 9309 41be 5714 783f
000000b0: ba2e 10c0 1ec9 353e abb9 0d3f 8b80 bb3d
000000c0: 0dbf 3cbf 41c7 8f3d 32e4 7abd 9944 b5be
000000d0: 28f9 873e 233b 793e acad f5bf d622 023f
000000e0: 320b 11bf 775d e1bd a9e4 14bf 42ed c53e
000000f0: 92f8 41bf 7c89 a03e 3d4d 643f a632 c73e
00000100: ac31 77be de14 b2be ea89 323f ed66 d73e
00000110: 3ad3 513e 940a 693e 94c9 7d3e 195a 4e3f
00000120: 6f80 9a3f c4c2 693e 0ec7 733f 7106 54bc
00000130: 3fe2 dbbd 57c7 cebe 3ee0 993e 5515 563f
00000140: f5d8 87be 91a2 853d aeed afbe 3fb1 1abf
00000150: 1c52 da3e 2738 b1bd b197 d83d 8556 c83e
00000160: cd7c 6d3f a2b3 793f 5b8d 02bf 706a 1f3f
00000170: 6864 bd3d 9b3a 223e 4dc3 fe3e 9872 cdbe
00000180: 8931 553f 14ac 1b3f 3ede ce3d 9c9e 733e
00000190: 8751 9b3e f89e 17bf 8a9f cd3d b3e6 39be
000001a0: 73c2 133f 84e5 713d e663 9abf 4193 653f
000001b0: da2d d13e f868 143f f890 f03e ed09 213f
000001c0: 59be 173f 2ba1 af3e 3039 26be 7ebf ee3d
000001d0: 0ece b6be 7108 c23e 27b4 92bf 6782 293d
000001e0: 72bc ba3e c711 b03e eabe 7fbe 6466 16bd
000001f0: d7e9 9e3e 289c 053f 218e f23e ef61 ee3e
00000200: fde2 923e 7fda 1abf a6a3 4d3f 01e3 863d
00000210: 5919 a13f 4cdb b23d f666 e93d 715b ae3e
00000220: 7c7e 423e 1681 ea3b ace5 7b3f 2283 873f
00000230: 0972 61be cbdb 263d 8d59 86bd 1d65 1d3f
00000240: e707 a1bf 806c afbe f4f6 09bf 2e2e 383f
00000250: 08db 913e dbc0 613f 49a1 553e 89b4 903f
00000260: 22f1 4f3f 81ac 2c3f d179 f33e e135 aa3c
00000270: cbd3 9abb ef6f 38be 80be 193e 5d86 ccbe
00000280: 8334 633f c402 113f c4c0 923e c397 933e
00000290: ac84 063f bb65 103e 2a8e 833e 3244 9d3e
000002a0: 17ee 363f a8c2 103d 9cb8 823f 0bbd cd3e
000002b0: 16a3 39bf 34b6 7a3e 61ed 2f3e e83f 1a3f
000002c0: 7c87 24bf 7699 af3e 5fe5 08be 0f6c 77bc
000002d0: a520 42bf 8a06 2e3e c879 4d3e bcc7 9c3f
000002e0: 820d e3bf bcca 34bc 2d52 a4bd 5e75 fcbe
000002f0: 50aa 95be c4d3 c4bd 72e2 233f 82a1 663e
00000300: dff8 5f3f 0639 2b3f a5db 77be 039d a23d
00000310: b72c 1e3f a5e8 0abd 524f d23e 7a73 0f3f
00000320: df1e 153f a108 b8be e1d6 e23f b4ca a9bb
00000330: 56c4 52bf 2ccb a8bf a007 613f 9af3 e0be
00000340: db2f 10bf 2a60 303f b4d0 963e 0dbd 43be
00000350: 95c9 fa3e 7be4 e3bd 0fae 403f 7afe c33f
00000360: 17cd 043f ec57 9a3f 1aa9 02bf c162 983e
00000370: 62fd 9a3e 1c7d 61bc e44f f43e 20e3 143f
00000380: 338a b03e 6a23 fa3d e2a4 9b3e 05e1 d23e
00000390: e863 cebe 0a12 e6bf d872 303e 3ce9 a1bd
000003a0: 77eb ccbf 6244 35be f39b 813e 4495 2c3f
000003b0: 8dce 94bf 64c2 153f 2fce c9bf a18e 863e
000003c0: 5e08 5dbf 4be2 87bd 9216 143e fa56 95be
000003d0: 10fa 863f 0011 a5be cbd6 9cbf df2f 4b3f
000003e0: b52e f03f 02d0 3e3f 2d1c 94bf da9e ff3e
000003f0: a74a 12be 9ba5 2c3f 45bc bebd 5b04 493f

fc2.bias f4 [64]
-0.06528295 -0.3065046 -0.2990359 0.7836911 -0.476687 -0.02702055 -0.0060379826 0.02085078
-0.049221 -0.027054233 -0.025328565 -0.40061325 -0.059487708 -0.28238484 0.22578423 -0.46155736
-0.2780816 0.089757994 -0.17247222 -0.17420718 -0.07272646 -0.411717 -0.08453827 -0.2792691
0.04095747 -0.011806313 -0.00066625193 0.047702216 -0.49921137 -0.7249649 -0.3780895 0.19258294
0.45487034 -0.19068968 0.25316384 -0.5083762 -0.013095095 0.53893405 1.3125147 -0.28401768
0.3464492 -0.4195159 -0.11444723 0.43879914 0.1317309 -0.23636997 -0.058499824 -0.3804789
-0.066806994 -0.39680517 -0.60171247 -0.12634553 -0.4277651 -0.025960475 -0.7277297 1.4635136
0.5836358 -0.08813864 -0.76872444 -0.45292854 -0.08289602 -0.12748435 -0.39586133 -0.022811443
00000000: 11b3 85bd 2cee 9cbe 3c1b 99be fb9f 483f
00000010: 5210 f4be 335a ddbc 45da c5bb 41cf aa3c
00000020: f69b 49bd d7a0 ddbc da7d cfbc 2e1d cdbe
00000030: 62a9 73bd bf94 90be fb33 673e 3f51 ecbe
00000040: b660 8ebe 0ad3 b73d 8f9c 30be 5e63 32be
00000050: 9cf1 94bd 92cc d2be 6722 adbd 5cfc 8ebe
00000060: 05c3 273d 446f 41bc 69a7 2eba 6663 433d
00000070: a298 ffbe 4d97 39bf f294 c1be 7634 453e
00000080: c4e4 e83e 2844 43be b19e 813e f124 02bf
00000090: cf8c 56bc 95f7 093f 7b00 a83f c46a 91be
000000a0: ca61 b13e caca d6be 4f63 eabd 48aa e03e
000000b0: 77e4 063e f80a 72be 839d 6fbd 21ce c2be
000000c0: 1bd2 88bd 0c2a cbbe d409 1abf b960 01be
000000d0: 0704 dbbe 10ab d4bc 7e4c 3abf 6a54 bb3f
000000e0: 2869 153f 0882 b4bd 20cb 44bf 40e6 e7be
000000f0: 63c5 a9bd 428b 02be 56ae cabe 10df babc

fc3.weight f4 [4, 64]
-1.2905765 -1.0066112 -1.5824853 -0.61872107 -0.7974771 -0.9200353 -1.4856286 -1.0684851
0.122973666 -0.052804448 0.05223356 -0.7286787 -0.026385434 -0.61153704 -0.01011431 -0.6306944
-0.85910904 -0.7946741 -0.85617316 1.3586503 2.146155 -0.9412146 0.040763915 -0.87678945
-0.0054244753 -0.02899081 -0.8197881 0.7692466 -1.0712135 -0.0069435267 -0.65938383 0.19113205
0.47409302 -0.5365951 1.7921172 -0.67745215 -0.0434949 2.2197747 2.3004308 -0.85516983
-1.613078 -0.65177256 -0.5101448 -0.43228045 2.2806568 -0.77405804 -1.2201027 -0.6182773
-1.0836304 -0.44058877 -1.0147402 -0.70835185 -0.97861147 0.08405934 -0.7950222 2.094484
-1.1610736 1.123098 0.6125556 -0.8227226 -0.044410303 -0.8373486 -1.8695058 -0.07306862
-1.0964851 -0.7791707 -0.66218954 -0.03351462 -0.6084234 -0.7280883 -0.53640354 -1.1879731
-0.023188129 0.13235097 0.0506476 -0.83474857 0.021190181 -0.84125537 -0.6811839 -0.5874271
-0.6976015 -0.74348164 -0.6409799 2.2007713 2.377218 -0.8708695 0.073247954 -0.7691629
0.031497072 -0.019511074 -0.89656824 1.7696773 -1.041531 -0.85977894 -0.7009352 -0.49600023
0.34133807 -0.7740741 2.2229726 -0.897509 0.19906712 2.1777468 1.7365433 -0.535433
-1.8681399 -0.5768 -0.8853565 -0.7917058 2.1623814 -0.6628662 -0.8324962 -0.7968797
-0.7003671 -0.6466301 -0.95593745 -0.8506059 -0.95128 -0.033412114 -1.0082871 2.3582084
-1.056702 0.62853307 -0.31414875 -0.94892365 0.073927045 -0.7121134 -0.71341187 0.02387026
-1.1028506 -0.7436826 -0.33275473 -1.2556006 -0.81109715 -0.740565 1.4599978 0.117552586
0.1067256 -0.05100298 -0.04814445 -1.0261611 -0.06323107 -0.93098366 -0.67401445 -0.17592102
-0.7760236 -0.569392 -0.60304165 0.36323756 2.2717552 -0.7120699 -0.00014312202 -0.6053728
0.076135054 -0.10337096 -0.83060926 2.3378637 -0.6491984 -0.9552384 -0.8952769 -1.343249
0.6276969 -0.8152104 2.2860403 -0.9019819 0.45435882 1.5640267 2.2842538 -0.755792
-1.1855602 -0.46059874 -0.7747944 -1.8056672 2.7460215 -0.8153146 -0.7972473 -0.8186553
-1.0407459 -0.9562068 -0.3436205 -0.59782827 -0.68875957 -0.049074084 -1.1295136 2.117891
-1.1728331 0.49572033 -1.2892172 -0.9008467 0.041313205 -0.5845896 -0.9124476 -0.102142274
-1.1430037 -0.85525227 -0.44057566 -0.7954555 -0.6211722 -1.1117945 -0.25365806 -0.40595162
0.042016447 0.117244735 -0.02308701 -0.86730623 0.07579625 -0.8248221 0.11527164 -0.6733092
-0.8061774 -1.0694224 -0.8353832 1.2323157 2.0793154 -0.79048455 0.121682316 -1.0624865
0.06726727 0.07723437 -0.74822766 0.6570509 -0.7313707 0.38587946 -0.7051249 -0.07556525
-0.29724112 -0.9358357 2.0485823 -0.8294067 0.023367696 2.3678174 2.9126353 -0.99711686
-1.0342485 -0.7918958 -0.9747496 -0.54332787 2.2924573 -0.90698844 -0.88535154 -0.6529372
-1.0134457 -0.83522326 -0.5258102 -0.6954791 -0.7283646 -0.02818437 -0.71689606 1.7277702
-0.9436338 1.1663328 0.01742807 -0.6468784 -0.10533463 -0.9426722 -0.41159 -0.023560971
00000000: 9c31 a5bf a3d8 80bf e18e cabf 8164 1ebf
00000010: 7627 4cbf 6f87 6bbf 1429 bebf 1fc4 88bf
00000020: 9ed9 fb3d 7a49 58bd dbf2 553d b08a 3abf
00000030: 4426 d8bc b18d 1cbf 7eb6 25bc 3075 21bf
00000040: 92ee 5bbf c36f 4bbf 2a2e 5bbf 41e8 ad3f
00000050: 9b5a 0940 71f3 70bf 10f8 263d 4675 60bf
00000060: ccbf b1bb 237e edbc a2dd 51bf 58ed 443f
00000070: 861d 89bf 8686 e3bb 61cd 28bf 1fb8 433e
00000080: 52bc f23e 4c5e 09bf 1964 e53f 816d 2dbf
00000090: b527 32bd ca10 0e40 423a 1340 69ec 5abf
000000a0: 5779 cebf 91da 26bf da98 02bf dd53 ddbe
000000b0: 48f6 1140 ab28 46bf 532c 9cbf 6c47 1ebf
000000c0: 67b4 8abf da94 e1be 02e3 81bf 8c56 35bf
000000d0: 4886 7abf 4e27 ac3d 9386 4bbf 070c 0640
000000e0: 0f9e 94bf adc1 8f3f 72d0 1c3f f39d 52bf
000000f0: 94e7 35bd 7a5c 56bf f74b efbf 00a5 95bd
00000100: a059 8cbf bb77 47bf 4185 29bf a046 09bd
00000110: a3c1 1bbf ff63 3abf be51 09bf 810f 98bf
00000120: 08f5 bdbc 0387 073e dc73 4f3d 15b2 55bf
00000130: 0897 ad3c 835c 57bf 1162 2ebf 9f61 16bf
00000140: 0396 32bf d054 3ebf 4217 24bf 70d9 0c40
00000150: 5724 1840 4ef1 5ebf 0603 963d dce7 44bf
00000160: 1303 013d b0d5 9fbc 7f85 65bf c984 e23f
00000170: e350 85bf 791a 5cbf 7d70 33bf bef3 fdbe
00000180: ddc3 ae3e b829 46bf 2f45 0e40 26c3 65bf
00000190: 40d8 4b3e 3460 0b40 0d47 de3f 2312 09bf
000001a0: 351f efbf 2aa9 13bf b9a6 62bf 3bad 4abf
000001b0: 7564 0a40 99b1 29bf 791e 55bf 4f00 4cbf
000001c0: 424b 33bf 8d89 25bf 51b8 74bf 4fc1 59bf
000001d0: 1687 73bf 24db 08bd 8d0f 81bf e3ec 1640
000001e0: 0342 87bf 8be7 203f 1bd8 a0be a9ec 72bf
000001f0: 1067 973d 104d 36bf 29a2 36bf 908b c33c
00000200: 352a 8dbf fc61 3ebf d45e aabe 85b7 a0bf
00000210: 10a4 4fbf ab95 3dbf 35e1 ba3f 69bf f03d
00000220: f492 da3d 80e8 50bd 1d33 45bd 3f59 83bf
00000230: 4b7f 81bd f254 6ebf 368c 2cbf a424 34be
00000240: 7ca9 46bf adc3 11bf f060 1abf 46fa b93e
00000250: 7064 1140 374a 36bf 0613 16b9 b6f9 1abf
00000260: b2ec 9b3d 27b4 d3bd cfa2 54bf 8f9f 1540
00000270: de31 26bf 818a 74bf de30 65bf 95ef abbf
00000280: beb0 203f a1b1 50bf 7c4e 1240 49e8 66bf
00000290: b8a1 e83e 0732 c83f 3731 1240 967b 41bf
000002a0: 70c0 97bf 99d3 ebbe ed58 46bf 1a20 e7bf
000002b0: d1be 2f40 75b8 50bf 6618 4cbf 6593 51bf
000002c0: 2937 85bf f8c9 74bf 07ef afbe 460b 19bf
000002d0: 8c52 30bf e801 49bd e793 90bf 878b 0740
000002e0: 651f 96bf 0ecf fd3e 1205 a5bf e49d 66bf
000002f0: 0938 293d aaa7 15bf 2a96 69bf f82f d1bd
00000300: f24d 92bf d0f1 5abf 2293 e1be f9a2 4bbf
00000310: 2405 1fbf 484f 8ebf 78df 81be e4d8 cfbe
00000320: 7019 2c3d 021e f03d f820 bdbc c807 5ebf
00000330: 103b 9b3d 8b27 53bf 8a13 ec3d fe5d 2cbf
00000340: a461 4ebf d5e2 88bf acdb 55bf 85bc 9d3f
00000350: 8113 0540 325d 4abf 9434 f93d 8fff 87bf
00000360: 6cc3 893d 0e2d 9e3d d98b 3fbf 7d34 283f
00000370: 1c3b 3bbf fe91 c53e 1183 34bf f4c1 9abd
00000380: fd2f 98be ee92 6fbf f91b 0340 ff53 54bf
00000390: 9c6d bf3c 528a 1740 9e68 3a40 0d43 7fbf
000003a0: 4162 84bf afb9 4abf 3189 79bf 8917 0bbf
000003b0: 9fb7 1240 6530 68bf 66a6 62bf e426 27bf
000003c0: 97b8 81bf 31d1 55bf 7f9b 06bf eb0a 32bf
000003d0: 1a76 3abf e8e2 e6bc 8086 37bf 9327 dd3f
000003e0: fc91 71bf 654a 953f 50c5 8e3c d399 25bf
000003f0: afb9 d7bd f752 71bf edbb d2be f002 c1bc

fc3.bias f4 [4]
0.56035995 0.2483036 0.70256764 0.2697717
00000000: c073 0f3f 4d43 7e3e 79db 333f 841f 8a3e
